quantile_forecasters/1724443576.pt (torch, 82391 bytes, 6 tensors)

net.0.weight f4 [128, 17]
00000000: 5844 b53f 5147 edbf 56ae d63e 68f7 d5be
00000010: 8eac 6b3f 80a0 093e 5774 543f 5fa0 23c0
00000020: d928 dc3f 373e 4dc0 b493 813f 266a 16be
00000030: c438 f7bd 4372 09c0 4d26 3cbf aa67 0ebe
00000040: 0011 433e 3de7 b63e 33d8 d63e 778b fb3e
00000050: 3e3e 0ac0 adcb 9cbd 017f 9cbf a57f f6bf
00000060: 2122 f6bf 7520 24c0 5923 843f f38b 05c0
00000070: ad56 0bc0 78b2 bebf 043a 40c0 edac 9ebf
00000080: ccab 8ebd 4765 85bf 0981 38bf 5633 5ebf
00000090: 1e6b 97bf d56e 20bf aee7 fdbf d9be aa3f
000000a0: edfc 1dc0 7a06 6d3e ff3d 2c3f 2a1c 52bf
000000b0: d722 b4bf 66d2 343f 1ec9 92bf 5804 4cbf
000000c0: 19ab 28bd 0b67 0ac0 aed9 e0bf 9ba4 243e
000000d0: 476b bdc0 fd99 dfc0 5abf e5c0 9f90 0fc1
000000e0: a210 aac0 fa65 00c1 022b 0ac1 f1c1 0bc1
000000f0: 0216 ecc0 89a6 03c1 f798 d9c0 2abc fbc0
00000100: dd68 ecc0 ef4b 5bc0 8aa7 b73d 61be 053e
00000110: d6f2 61c0 adb7 26be d6ad 89bf 393a 8ebf
00000120: 3616 a9c0 0d26 b0c0 b842 c7c0 ec02 77c0
00000130: 3298 cdc0 d3ee f2c0 497d 9ac0 4745 acbf
00000140: c838 a2bf 55de 7c3f 0a86 4dbe 2fb4 09be
00000150: db31 9b40 526d 0dc1 0e30 10c1 aa40 13c1
00000160: 6372 02c1 c7cf 03c1 c78d c8c0 3b42 11c1
00000170: 7890 04c0 d3b6 9dbf efbd 07c1 2523 b8c0
00000180: d3b1 8bc0 b559 debf 2f47 753d 3acf 053e
00000190: b01f 403e f50b a540 6e84 5a3d 8da9 0abf
000001a0: 5cc0 edbf cb3c 08be 2534 d5bf b0b1 f7bf
000001b0: 33f8 42bf b8ca b6bf 1540 75bf 8edd a8bf
000001c0: 553d 24bf 7984 8cbf 3f25 05c0 8597 9fbf
000001d0: fe7f a8bd 1887 253e 12f0 4e40 c967 8c3e
000001e0: 4e25 f9bf ecf1 7cbf 4565 84bf 849d a4be
000001f0: 9487 2bbf de15 3fbf 1d8e d1bf 6141 01bf
00000200: bdfb 6ebf f03c 81bf 7906 d2bf 6572 93bf
00000210: 675d 62be 7845 30be e3ed 5ebd 3261 77be
00000220: 381c a1bd 3e06 32c0 b33b bdbf 501e a0bf
00000230: ed5c b7bf dc35 053e 8307 103e 88b8 a4bf
00000240: b9c2 aabf 3809 ee3e 67b8 d73f c28b a2be
00000250: f757 ccbf f19f 53c0 4ede 7ebf 36fa 62c0
00000260: 30d3 413e 114d 23be 612c 313f f0fe 143e
00000270: ac8b 1fbf 5dae b3c0 005e 1fc1 9ab6 aac0
00000280: 57fa 213f e588 773f 5900 c63e db78 3a3f
00000290: cff5 1d3f f647 82c0 d439 13c1 028b d1c0
000002a0: 210e 583f 6dce a5be 0a74 94c0 ade3 4d3e
000002b0: fa95 6cc0 d41f b8c0 f33a bbbf 3f8f 8f3f
000002c0: 577d 31c0 5418 2a3f 0bf1 88bf 994a 053d
000002d0: 6f57 cdbf c0f9 68c0 0c5b 743f 8f63 2bc0
000002e0: e9e9 eabf 4501 7ebf 4912 58bf 913f 94bf
000002f0: 4c20 0fc0 284a d4bf 2eef 1ac0 f68c 60bf
00000300: a017 373f adf4 50be 860b 49bf 779f 5bbf
00000310: 0c8e 29c0 43aa 49bf 600c e3be 07c2 47c0
00000320: 3ed9 12bf bbc6 8bbf e1bb 19be b31e 13c0
00000330: a4e8 1ebe 3f3f 113f 7a84 f0bc 07c5 823e
00000340: e22e 873e 0838 2f3f 8dde c4bd 688d b13e
00000350: 0c5e 11be b5e6 d63c 22be 303f 212e 3e3e
00000360: 1acd 1dbf bfce 0ebf 8709 1dbf 9feb 31c0
00000370: 6652 1ec0 aebf 833e a1a9 bfbd b147 9b3e
00000380: c64e 6f3f a5c1 2e3e 8d21 71c0 c3ff 88c0
00000390: ae8e 0fc0 1308 17c0 fd4c 11c0 c708 08c0
000003a0: 2247 36c0 d9a6 2dc0 3b59 16c0 2859 e2bf
000003b0: f061 b2c0 53a7 983e 197d bb3f 0a07 9bbf
000003c0: de5f a83f ac61 bbbe 3178 8f3f 290e a4bf
000003d0: 1bed d8bf 8512 833e 4976 39be b9f4 95bf
000003e0: 77ec 6b3e a763 59bf 1b70 27c0 39d3 56bc
000003f0: 1b79 d13d 9b54 8e3e 31dc 04c0 e66b 24c0
1.4161482 -1.8537389 0.41929883 -0.41790318 0.9206017 0.13440132 0.8299002 -2.5566633
1.7199966 -3.2069223 1.01232 -0.1468893 -0.12071374 -2.147599 -0.7349594 -0.13906732
0.19049454 0.35723296 0.41961822 0.4912984 -2.160049 -0.076560356 -1.2226259 -1.9257704
-1.9229165 -2.564481 1.0323287 -2.0866668 -2.1771653 -1.4898214 -3.003541 -1.2396523
-0.069663614 -1.0421532 -0.7207189 -0.8679708 -1.1829565 -0.62669116 -1.9836328 1.3339492
-2.4685624 0.23147002 0.672821 -0.82074225 -1.4073132 0.7063354 -1.1467626 -0.7969413
-0.041178796 -2.1625392 -1.756643 0.16078417 -5.9193454 -6.9875474 -7.1796083 -8.972808
-5.3145304 -8.024897 -8.6355 -8.734849 -7.3776865 -8.228158 -6.7999225 -7.8667192
-7.3878007 -3.4265096 0.089675024 0.13060905 -3.5304465 -0.16281004 -1.0756176 -1.1111518
-5.2839613 -5.504645 -6.2268944 -3.8595533 -6.4248285 -7.5916533 -4.8277936 -1.3458642
-1.2673578 0.9877675 -0.20070663 -0.13447641 4.849836 -8.83919 -9.011732 -9.203287
-8.152926 -8.238227 -6.267307 -9.07867 -2.0713177 -1.2321419 -8.4838705 -5.75429
-4.365457 -1.7371126 0.05988234 0.13067332 0.18762088 5.1577096 0.05334895 -0.54164964
-1.8574328 -0.1330444 -1.6656538 -1.9351101 -0.7615997 -1.4280615 -0.95800906 -1.3192613
-0.64156085 -1.0977927 -2.0803983 -1.2468115 -0.082275376 0.16164815 3.2334027 0.27422932
-1.946451 -0.98806643 -1.0343405 -0.32151425 -0.6700375 -0.7464274 -1.6371495 -0.50490385
-0.9335287 -1.0096722 -1.6408225 -1.1519285 -0.22105943 -0.17214 -0.054426085 -0.24158171
-0.078667104 -2.781631 -1.4783844 -1.2509251 -1.4325234 0.13008827 0.14065365 -1.2868814
-1.3340675 0.46491408 1.685315 -0.31747252 -1.5964345 -3.306637 -0.9955796 -3.5465217
0.18928218 -0.15947367 0.6920834 0.14550376 -0.623225 -5.6150346 -9.960449 -5.33479
0.63272613 0.9669326 0.3867214 0.7284066 0.617032 -4.0712843 -9.201618 -6.5482187
0.8439656 -0.32384053 -4.639165 0.20106383 -3.6966538 -5.7538853 -1.4627365 1.121559
-2.7732751 0.6644337 -1.069856 0.032541845 -1.6042308 -3.6402435 0.95451427 -2.6779516
-1.8352634 -0.9922069 -0.844029 -1.1581899 -2.2363462 -1.6585131 -2.4208484 -0.8771509
0.71520424 -0.20405836 -0.7853321 -0.857902 -2.6492949 -0.78775424 -0.4434538 -3.1212175
-0.57362735 -1.0920023 -0.15013076 -2.2987487 -0.15518433 0.5673713 -0.029360045 0.25540945
0.26402956 0.6844487 -0.09612761 0.34678197 -0.14196032 0.026233057 0.6904012 0.18572284
-0.61641085 -0.5578422 -0.6134266 -2.7800062 -2.4737792 0.25732177 -0.09358526 0.30328134
0.93479574 0.17066057 -3.7676728 -4.281221 -2.2430835 -2.3598678 -2.270324 -2.1255357
-2.8480916 -2.7133086 -2.3491962 -1.7683458 -5.5744553 0.29815158 1.4647552 -1.2111523
1.3154256 -0.36597955 1.1208555 -1.2816821 -1.6947359 0.25600067 -0.18111528 -1.1715308
0.23039423 -0.8491768 -2.6162174 -0.013111883 0.10228177 0.27798924 -2.0759394 -2.5690856

net.0.bias f4 [128]
00000000: 1899 bbc1 0dfd e3bf 7342 7ec1 2029 1741
00000010: 970d 6c41 9291 4241 0412 3941 37f6 f6c0
00000020: a127 a0c0 0f55 e1be e2b2 0dc1 0026 22bf
00000030: 0d63 4041 1a62 1dbe b7f6 4dbf fede 69c1
00000040: ec66 6f40 6bb9 8641 08c8 33c0 75bd 7b41
00000050: e401 f1c0 c1d1 0041 0edb 10c0 df19 d440
00000060: 41da 23c1 22e0 dfc0 57c6 01c1 b384 9241
00000070: 5090 17c1 72ae bfc0 2ef4 a740 ea73 dfc0
00000080: 820d bb3d dffc 1141 d29d cbc1 f629 1ec1
00000090: e09d aa40 95dd 7c40 49dd 11c1 7eaa 7f41
000000a0: 76bb 04c1 7b71 afc0 6fb6 8cc0 6f9d 83c1
000000b0: 5824 0a40 9c9d 1ec0 ae7f f8c0 8cbb 4241
000000c0: 6892 f6c0 cc57 0841 07d5 5241 07ef 1ac2
000000d0: f074 7241 b077 5441 57d1 ad40 48c1 dcc0
000000e0: 2b8f 0fc0 c3d9 50c1 0f37 bbc1 3c41 06c0
000000f0: 475e dec0 9e1a 6541 fef6 0640 0fda 58c1
00000100: 00cc 00c1 d6bf f2be 555b 98c0 bba8 cec1
00000110: 2a17 f0c0 4bdd 1a41 23f0 d9bf e2b3 5740
00000120: 0557 47c0 3f1d 5041 b637 9540 f5e0 a241
00000130: ade6 30bf d86d d6bf 7371 90c1 0b08 19c2
00000140: a0d9 16c2 58e6 06c1 75a6 93c0 fa34 3a3e
00000150: 6f5b 0cc1 d9f0 8d41 fa27 dcc0 6bb1 8541
00000160: 8eda ebc0 f0cc 30c0 7d02 bac0 06f4 edc0
00000170: db91 bdc1 2831 c1be 93f4 0ac2 1c95 c5bf
00000180: 5ec9 45c1 7617 ddc1 ab43 05c1 6f1d 3741
00000190: 87b5 69c0 602e 1dc0 6a0a 5bc1 0af8 6741
000001a0: 06b1 25c1 d3a4 cb40 7aa2 b8c0 a684 7ec0
000001b0: 0e9e 8fc0 a4a0 a0c0 5918 86c1 85b7 28c1
000001c0: 466a ecc0 d7fa 8941 edc2 90c1 1ed8 eec0
000001d0: b89e 6ec1 3b7b ffbf ff03 0d41 4405 3541
000001e0: 7881 5940 cd65 29c2 0cdf 85c1 483b e4c0
000001f0: c530 5fc1 896e 2e41 47ea f9c1 1351 29c1
-23.449753 -1.78116 -15.891223 9.44754 14.753318 12.16054 11.566898 -7.7175555
-5.0048375 -0.44010207 -8.856173 -0.63339233 12.024182 -0.15369454 -0.8045458 -14.616941
3.7406569 16.840536 -2.809084 15.733754 -7.531481 8.051209 -2.26337 6.628158
-10.240785 -6.99611 -8.110923 18.314795 -9.472733 -5.9900446 5.248557 -6.9828997
0.09133436 9.124236 -25.45206 -9.885244 5.331772 3.9510243 -9.116525 15.979124
-8.295767 -5.4826026 -4.3972697 -16.451872 2.1584682 -2.4783697 -7.765586 12.170788
-7.705372 8.521435 13.177009 -38.733425 15.153549 13.279221 5.431804 -6.898594
-2.2431133 -13.0531645 -23.401884 -2.0977316 -6.9490085 14.318998 2.1088252 -13.553237
-8.049805 -0.47411984 -4.761149 -25.832388 -7.5028276 9.679027 -1.7026409 3.3703542
-3.1146863 13.00714 4.6630507 20.359842 -0.69101983 -1.6752272 -18.055395 -38.257854
-37.712524 -8.431236 -4.6140695 0.18184271 -8.772323 17.742601 -6.87988 16.71163
-7.370429 -2.7625084 -5.8128037 -7.436038 -23.696218 -0.37732816 -34.738842 -1.543613
-12.361662 -27.636456 -8.3290205 11.444686 -3.6517045 -2.4559555 -13.6900425 14.498056
-10.355719 6.36387 -5.7698336 -3.9768462 -4.488044 -5.0196095 -16.761889 -10.544805
-7.387973 17.24748 -18.095179 -7.4638815 -14.91375 -1.9959482 8.813476 11.313786
3.3985271 -42.349415 -16.73391 -7.1322365 -13.949407 10.901986 -31.239393 -10.5822935

net.2.weight f4 [128, 128]
00000000: 1a7d 02bf 2ce2 333d 28e5 09bf 2752 5ebe
00000010: 4855 3dbe d72b 443d 2044 9cbe 491f 55be
00000020: 4f24 0d3e f0fc d2bc efe6 27be 425c a4be
00000030: 36f7 45bf ad1d a9be 1e41 87bf c67b 55be
00000040: f185 21be 3daa 9ebd 5392 dbbe ba7a 303e
00000050: bf4e 57be 3604 84bf 60cd 873b 7d4f 473e
00000060: d53a bf3d 6de6 013f 3cec 153e ba5c a3bd
00000070: c3d2 2a3e 167b 713e 940f f1be 3a45 68bf
00000080: 7601 073d 8162 033c f9c9 aa3e 2fcc 8abf
00000090: 510f 81be b361 c2be e8b6 47bd 50e4 703c
000000a0: 401d a33c a074 f3be a890 c9be 1fc3 2dbf
000000b0: 20a6 1bbd 0fa5 35be be47 013c 44dc e3bd
000000c0: 5e55 dfbf 675a 5f3d 06a0 433f 249b e6be
000000d0: 8490 c9be 40b4 80bf 5daf d33e e1f0 b9be
000000e0: 4586 f43d 3f0d 1cbf 126a fd3d 9f8f 38bf
000000f0: 19e3 053f ff33 fabe ed8a dabf a9ca 0ebf
00000100: ade8 08bf ad91 17bb 7b3e 06bf be49 ccbe
00000110: 1bce 5d3d 2e4f 67bd 48b1 01bf 545a 89be
00000120: 607a e1be 938e 73bd c0b1 b7be ffa4 aa3d
00000130: 90cb 68bd a91c 053e c1a2 223e a5c7 6dbd
00000140: 3aa9 813c 20a1 a8bd cc17 4dbf a7e4 f1be
00000150: b270 9c3e 03d2 7fbc faac de3e b7c1 9abf
00000160: 6edb 1ebe 0118 39be a91a a23c 4d10 113e
00000170: 4b87 6abe b8fa 4abe 79b3 7fbf 5330 0cbf
00000180: 8529 c83e 15c2 01bf 57e9 80be a117 c2be
00000190: 7f09 68be 8e77 483e 7487 2abf 2d40 59bd
000001a0: 5e39 2d3d dda8 ef3d 6635 393d b00b 4cbe
000001b0: 9e6a 3bbe a522 a7be e25e 1cbf 92f4 b63d
000001c0: 8a62 aabf 03cf 6abd 8624 a9be 3bfd 65be
000001d0: e61a 40bf e8e7 d2be 49b6 d3be 2e2b 713d
000001e0: 1940 c53e a91b b6be 6046 a9be 4b4c 08bf
000001f0: dad6 c0bd e62a 17bf d536 d0bc 9c45 efbd
00000200: 0ab2 79bf f4b2 86be 1403 103f 0081 2dbf
00000210: 50aa 6dbd a73d 1cbf 1b27 8c3e 18dc 043f
00000220: 99e1 59bd 7be0 873d 038d be3e 654d 153f
00000230: b979 2ebf 4190 1d3f 5132 743e 43d4 803e
00000240: a8ef 0d3f f5da 8ebe 988c c93e 80f0 89be
00000250: 38ea b63d a84b 9cbe 4830 a4bd 6fe4 093d
00000260: e344 ca3e 42b3 ebbe a43f b0be 2f95 813e
00000270: c4c2 a13c 902d d5bd 4e2d d3bd e7ce 29bf
00000280: a44f 913e 7316 4dbf 7c15 cbbd 594f 03bf
00000290: 802b 793a 15f5 5b3e ea0b aabe 47ca 35bf
000002a0: 337e 19bf ccef 29bf e624 e83e e730 2e3f
000002b0: c072 9bbf d756 c13e 7d29 323f 99a5 c1bc
000002c0: 9c32 de3e 6a49 d23e a51c 1f3f 4872 45bf
000002d0: b9f6 c9bc 8c94 2ebe d3cf 053f 97f3 213c
000002e0: 7204 42be 68c5 35bf f8e6 7fbd 6ad1 b1bf
000002f0: 51a3 843d a15f 8f3d 74ac 89bf 4557 7bbf
00000300: a9e1 6ebf 543c 5dbf 562b 2f3e cfa4 44be
00000310: c942 9b3e 48d4 703f ff5b 0cbf fc43 313e
00000320: f50b f1be cf11 06bf 59d2 1b3f affc a73e
00000330: 7b55 20bd 6fc8 afbf 810a 32bf 038d b03c
00000340: c4b7 7c3e 78c7 00bf 6f88 fcbe 5e72 abbf
00000350: 0e84 86bf 1d5f b33d d6ae 083c abc6 eabe
00000360: 70fc 4fbf da54 0e3f c7aa 143f 563b 253e
00000370: 5fa2 303e d400 2dbf 54f0 733e 9cc0 833f
00000380: ee3c c0bf a2c1 2b3f 4a4d 0c3f b864 53c0
00000390: f6b7 0e3f ac80 84bd 8015 8c3d 47fe 91be
000003a0: 13a3 f5bd 33d2 e33d 415e b8bc 8364 433f
000003b0: 65a3 67bd 7883 013f a93c 63bf 5b02 fe3e
000003c0: 6904 8cbf 0aee 713f aeef 033f ed0e f93e
000003d0: de4b 13bf 450a 87bf 1644 fabe 227e 313e
000003e0: 97cf 14c0 db1d 02bf 8761 0ebf 2b7a c6bf
000003f0: 0238 2bbe 66f2 7e3e 0baa c6be dd6a cebe
-0.5097214 0.043916866 -0.5386529 -0.21711026 -0.18489563 0.04789337 -0.30520725 -0.20812716
0.13783382 -0.025755376 -0.16396688 -0.32101637 -0.7733034 -0.33030453 -1.0566747 -0.20847997
-0.15773751 -0.07747314 -0.42885074 0.17234316 -0.21026133 -1.0313785 0.0041443557 0.19463916
0.09337393 0.50742227 0.14640898 -0.079766706 0.16681962 0.2358211 -0.47082198 -0.9073063
0.032960378 0.008019091 0.33357218 -1.0843562 -0.25206998 -0.37965164 -0.048758417 0.014702871
0.019911408 -0.47549915 -0.39368176 -0.67875856 -0.038000226 -0.17738746 0.00789064 -0.11125997
-1.7447927 0.054529574 0.7641605 -0.45040238 -0.3936807 -1.0055008 0.4134473 -0.3631659
0.119396724 -0.6095771 0.12373747 -0.7209415 0.5229965 -0.48867795 -1.7073647 -0.55777985
-0.53480035 -0.00231276 -0.5243909 -0.3990001 0.054151636 -0.056471996 -0.50661135 -0.26826727
-0.44038677 -0.05946214 -0.358778 0.08332252 -0.056834757 0.12999214 0.15882398 -0.058051724
0.015827764 -0.08233857 -0.80114436 -0.4724476 0.3055473 -0.015614036 0.43491346 -1.2090367
-0.15513393 -0.18075563 0.019788103 0.14166375 -0.22903173 -0.19822204 -0.9988323 -0.54761237
0.39094177 -0.5068677 -0.25178024 -0.37908652 -0.22659872 0.19576856 -0.66612935 -0.05303972
0.042291038 0.1170213 0.04521694 -0.19926333 -0.1830239 -0.3264362 -0.6108228 0.08933367
-1.3311322 -0.057326328 -0.33035678 -0.22459881 -0.75041044 -0.41192555 -0.4135001 0.05887907
0.38525465 -0.35567978 -0.33061504 -0.53241414 -0.0941598 -0.5904983 -0.025416771 -0.11683199
-0.9753729 -0.26308405 0.56254697 -0.67774963 -0.05802375 -0.61031574 0.27373585 0.51898336
-0.053193662 0.06634613 0.37216958 0.5832122 -0.68154484 0.6154824 0.23847319 0.25161943
0.5544381 -0.27901426 0.39365077 -0.269413 0.089313924 -0.3052647 -0.080170214 0.033665117
0.3950568 -0.460352 -0.34423554 0.2530913 0.019746192 -0.10409081 -0.103113756 -0.6633133
0.28381073 -0.8011238 -0.09916207 -0.5129295 0.0009505078 0.2148021 -0.33212215 -0.71011776
-0.5995819 -0.66381526 0.4534065 0.6804337 -1.2144394 0.37761566 0.69594556 -0.023638533
0.43397987 0.41071635 0.62153083 -0.77127504 -0.02465378 -0.17048854 0.5227024 0.0098847365
-0.18947008 -0.71004343 -0.06247613 -1.3892033 0.06476463 0.07000662 -1.0755754 -0.9818004
-0.9331308 -0.8642018 0.17106375 -0.19203494 0.3032439 0.94073915 -0.54827875 0.1731109
-0.47079435 -0.52370924 0.6086784 0.3280997 -0.03914402 -1.3733042 -0.6954728 0.021551615
0.24679476 -0.50304365 -0.4932284 -1.3394277 -1.050905 0.08758376 0.008342465 -0.45854697
-0.81244564 0.55598223 0.58073086 0.16135916 0.1724944 -0.6757939 0.23822147 1.0293155
-1.5018594 0.67092335 0.54805434 -3.3030224 0.5574945 -0.06469855 0.06840038 -0.2851431
-0.119939946 0.11124077 -0.022505881 0.76325244 -0.05655231 0.5059123 -0.88764435 0.49611172
-1.0938846 0.94503844 0.515376 0.486442 -0.5753764 -1.0550009 -0.4888007 0.17333272
-2.3251703 -0.50826806 -0.55617565 -1.5506033 -0.16720584 0.24897155 -0.38801607 -0.40315905

net.2.bias f4 [128]
00000000: d04f 38be 6202 203f 6c46 1bbf 97e8 74bf
00000010: f898 a43f b23d 92c0 90f3 7640 7b1b d2bf
00000020: 4897 c4bf 3b14 4d40 9c70 f5bf dc0a c6bf
00000030: 5d72 b9bf 9c72 56c0 8f7d 8cc0 3260 a6bd
00000040: a993 4ac0 b4e6 2cc0 99f9 283f a720 55bf
00000050: aa6a 3fc0 50aa b140 8335 84bf 8a86 d940
00000060: 8e92 9abf 1bc8 1f40 6869 ca3f 390b cfbf
00000070: 6789 f8bf 5c6c 97bf 844b cabf b583 3fbf
00000080: f1ee 31c0 3b66 9c40 1c64 1ac0 7d75 1cc0
00000090: 51b4 08be a61b cabf 2da6 91c0 7196 fa3e
000000a0: 6a05 de3d 3ff5 4340 e236 873f db89 c93f
000000b0: 051d 383f 9ee5 6140 40c1 11c0 7faf 0ebf
000000c0: 7d1b 65c0 ddbc ccc0 f77b 863d 2744 25c0
000000d0: ca5f 3dbf dbec 57bf 1fc1 ffbe 70e5 4840
000000e0: 342a f4bf e95b 653e 29ee 19c0 ad91 3f40
000000f0: e767 debf 2014 11c0 0607 50bf 1a52 9dbe
00000100: f23a d2bf dfc8 0e3f caf2 41c0 4bae 9bbf
00000110: 162a 44c0 b8d1 debf bfd8 7a40 9d8b efbf
00000120: 95a1 aebf 9631 a440 bb14 22c0 3fba 34c0
00000130: 2680 fb3e 82e3 66bf 6fc6 b4be c5c3 76c1
00000140: c46a 0ac0 5371 41bf 32b5 cdbf 0528 853f
00000150: bc9c 2440 b9c6 66bf fc7e d9c0 6840 f5bf
00000160: db58 f2bf eb4d aa40 b565 c8bf 5376 5541
00000170: a377 10c0 074a 613e bffe d4c0 4147 13c0
00000180: 1c76 d240 21f7 8940 13ec e7bf 18a3 0fbf
00000190: e9ea 5ac0 a789 7bbf 587f b8bf 0586 2fc0
000001a0: 82f3 08c0 2ecb 2b40 d34c b5bf f00f 703d
000001b0: 7bac ccbf 65ca 8cbf 3a3e 67c0 ffcc 46c1
000001c0: ca94 9fbf 397f 0ac0 d74f 56be 7b44 99bf
000001d0: 3958 c5bf a453 18c0 214b 6440 2a55 57c0
000001e0: f021 ff3f efd7 60c0 597e 3ac0 dd68 d53f
000001f0: 5500 2cc0 7e96 95bf 1804 0fbd e79d 5440
-0.17999196 0.62503636 -0.6065433 -0.95667404 1.2859182 -4.570031 3.8586159 -1.6414636
-1.5358667 3.2043598 -1.9174991 -1.5472064 -1.4488026 -3.3507452 -4.390327 -0.081238165
-3.1652625 -2.701581 0.66005856 -0.8325295 -2.9908853 5.55204 -1.032883 6.797673
-1.2075975 2.4965885 1.5813417 -1.61753 -1.9416932 -1.1829944 -1.5804296 -0.74810344
-2.7802088 4.8874793 -2.4123602 -2.444671 -0.13350035 -1.5789688 -4.551535 0.48942903
0.108408764 3.0618436 1.0563624 1.5745195 0.7191928 3.5296397 -2.27742 -0.55736536
-3.5798028 -6.3980546 0.06566613 -2.5822847 -0.7397429 -0.8434579 -0.49952027 3.1390038
-1.9075379 0.22398342 -2.4051611 2.9932663 -1.7375458 -2.2668533 -0.81260717 -0.307267
-1.6424239 0.55775255 -3.0304437 -1.2162565 -3.0650687 -1.7407751 3.9194791 -1.8714482
-1.3643061 5.131053 -2.5325153 -2.8238676 0.49121207 -0.901909 -0.35307643 -15.422795
-2.1627665 -0.75563544 -1.6070921 1.0402838 2.5720663 -0.90146977 -6.796751 -1.916028
-1.8933367 5.3220115 -1.5656039 13.341388 -2.257302 0.22000895 -6.656097 -2.301224
6.5769176 4.311417 -1.8118919 -0.56108236 -3.4205878 -0.98256916 -1.4413862 -2.742555
-2.1398625 2.684276 -1.416407 0.05860895 -1.5990137 -1.0999266 -3.613173 -12.425048
-1.2467282 -2.164015 -0.20928894 -1.1974024 -1.5417548 -2.380105 3.5670855 -3.364573
1.9932232 -3.5131795 -2.9139616 1.6672627 -2.6875203 -1.1686552 -0.034916013 3.3221376

net.4.weight f4 [10, 128]
00000000: e702 16bf 65f6 27be b164 8b3d cbcb cfbc
00000010: e105 143e b6a0 09be af28 033e 64d0 21be
00000020: 643f 9fbd 4f78 973d 4115 23bf e717 66be
00000030: aa8d bbbd c2e4 053e 195e 17bf ffcc 77be
00000040: d0f1 67be 643a 18be 1281 3fbd 9474 68be
00000050: 6838 1dbe be67 793e 39a7 6ebd 9afc 79bd
00000060: f712 45bc 3116 e43c 6332 80be ca8c f73c
00000070: 5700 cbbc db22 233e b9f0 aebe cdfd a83c
00000080: 83a7 56be 6952 0bbe 5de9 7b3d 801d a1be
00000090: 053f 6cbe 6e0a 2dbe f64a 3bbd 5f1e c63c
000000a0: c375 cf3e 664c 57bb 6f5b 91be 8779 d13e
000000b0: ebbd 693c f4c1 a83d de35 62be a825 db3b
000000c0: 09ac 38be 6b28 e03d 6cbf a53d f848 4fbe
000000d0: 9c97 653e f7f1 053c e6db 9e3d 8e41 0cbe
000000e0: 22d8 7abe 8387 e33d 0377 83bd b5f3 163e
000000f0: 80be 37be 3609 2e3e a1a3 4fbd 63f2 7abe
00000100: 4f55 5bbd a281 86be 0b1c 96be 4117 1abe
00000110: 6f4a 35be 9028 24be f4a2 793d f585 3dbd
00000120: 019a 6cbe 18a2 84bd a36a 2a3e 1ce5 4d3c
00000130: 24bf ae3d 76ea e6be 4dd7 3f3d 6dda 2bbe
00000140: dc6c 6e3d 48c3 a8be 1045 883e d749 813c
00000150: 6d12 85be 39fc ed39 547e 72be 7837 10be
00000160: 9f7b 3fbe 9c46 173d 420b 8ebd fdcd 4b3d
00000170: 136f b1be 5611 34be 2f41 7bbf fab6 7abe
00000180: a143 95be a6c5 45be 491d a73e 418d 95be
00000190: 8ca3 1f3d efc5 b53c c255 f93d 8ee4 48be
000001a0: 0bb3 09bd 8f38 0cbe 0f52 a1bd 907d 893d
000001b0: b105 82be d5b1 fa3b c165 c13d 19d9 903d
000001c0: 8379 ed3c 8d41 8bbe 9f09 a83e 0014 f2bd
000001d0: 2a76 3dbe 4855 f2bd ecda a53d fe04 01bf
000001e0: 57c3 273e fc3a 1ebf b316 c4be 299e a0be
000001f0: 3f96 04b9 a910 53be 9025 98be 504d 6d3d
00000200: af0f 06be cfad 89be a40b 463e 14c1 dbbe
00000210: 3507 d9be b231 f43d e154 0c3e 3dcd 29be
00000220: 833e c5be 5322 fe3d 9bf8 36be e59a 2e3b
00000230: d3e9 98be 4a8a 803d 429f 79bf ce67 253e
00000240: 55f2 63be a15c efbc 75a9 d4bd f501 a2bd
00000250: a3c3 09bf dc64 a43e 0142 943e 7b5a a5bd
00000260: 65ed b0be a355 f3bd aeda 17be e2e5 bdbd
00000270: 1f2e a7be fe23 b9bd ac6c fcbe 27a1 d5bd
00000280: 2ab1 ecbd 0b0b 3abe 3399 9d3d b679 2bbf
00000290: 4f90 debd 35cf eebd c955 42bd ee57 763d
000002a0: 8bd3 ae3e 5f2c 35bd 877d 96be d4de ba3e
000002b0: 51a3 543c 2326 a23c 1947 f2be 6631 f4bd
000002c0: b8c5 64be 505f 663e 9a3d 143d c6b7 c1be
000002d0: ab6f 373e 53e3 f1bd 69e7 c83d 4d76 a3bd
000002e0: 930b 12bf 7493 1d3e 8801 6fbe 221e e63d
000002f0: 3ffa 81be d657 9e3d ceb3 c9bd 0151 e1bd
00000300: b46b 51bd 7725 81be 2bbd c9be 0b41 4bbe
00000310: 28c5 09bf bca7 d4be 9bb2 ab3d 3106 abbe
00000320: 8ef3 a4be 6a48 24be 0bbb 123e 7d95 16be
00000330: 3fdd 3b3d e7f7 c8be 8420 3fbd f580 1abe
00000340: 861e eabc 753a 5cbe b2c4 313d c976 7abd
00000350: d69c ccbe 32c7 74bd 4e75 6dbe c97b 62be
00000360: 3464 98be 6e44 063d 0f7a 32be ff79 d73d
00000370: 245f 6cbe f7c2 0fbe 532d aebf b7c0 6cbe
00000380: dfc7 a3be a3a6 9cbe 053b debd aa7c cd3d
00000390: b0e3 cebd 32ce e0bd 8cf9 11bd 961e 6bbe
000003a0: 47aa 09bf c21f 17be a3fe 8d3e 530e fbbc
000003b0: adfb a6be 5d90 0abe cc6f 103e f471 ce3d
000003c0: 13fc 16be 28b5 97be 2c23 753e 190a 5cbe
000003d0: ad6b 74be f891 27be 8707 f03d a293 b0be
000003e0: 3197 5d3d 62e8 a0be 6e1c 10bf eb9b c6be
000003f0: 5411 cd3b a037 6abb ae8d 88be 8edf 973d
-0.5859818 -0.16402586 0.06806315 -0.02536573 0.14455368 -0.13440213 0.12808488 -0.15802151
-0.07775763 0.07395994 -0.63704306 -0.22470056 -0.0915788 0.13075545 -0.59127957 -0.24199294
-0.22650838 -0.14866024 -0.04675395 -0.22700721 -0.15353549 0.24355981 -0.058264945 -0.061031915
-0.012028447 0.027842613 -0.25038442 0.0302185 -0.024780435 0.15931265 -0.34168032 0.020628834
-0.20962338 -0.13605656 0.06150185 -0.3146782 -0.23070915 -0.1689851 -0.045725785 0.024184404
0.40519533 -0.0032851934 -0.2839007 0.4091303 0.014266471 0.082401186 -0.22090861 0.0066878386
-0.18034376 0.10945209 0.080931515 -0.20242679 0.22421116 0.008175365 0.07756786 -0.13696882
-0.2449651 0.11109831 -0.06419184 0.14741404 -0.17943764 0.16995701 -0.050693158 -0.24506526
-0.053548153 -0.26270777 -0.2931827 -0.15047933 -0.17704175 -0.16031098 0.06094642 -0.04627033
-0.23105623 -0.064762294 0.16642241 0.012566831 0.08532551 -0.45100754 0.046836186 -0.16782542
0.058209285 -0.32961488 0.2661519 0.01578228 -0.2599062 0.00045392083 -0.23681003 -0.1408366
-0.18699501 0.036932573 -0.06935741 0.049756993 -0.34655055 -0.17584738 -0.9814634 -0.24483863
-0.2915316 -0.19313678 0.3263953 -0.2920933 0.03897433 0.022189109 0.1217456 -0.19618437
-0.033618014 -0.1369345 -0.078769796 0.06713402 -0.25394967 0.0076505938 0.09443236 0.07072658
0.028988605 -0.2719845 0.3281984 -0.11820221 -0.18502107 -0.11832672 0.08098397 -0.5039824
0.1638311 -0.61808753 -0.38298568 -0.31370667 -0.00012644472 -0.20611824 -0.29716158 0.05793506
-0.1309192 -0.26890418 0.19340378 -0.42920744 -0.4238831 0.11923541 0.13704254 -0.16582198
-0.38524255 0.124088906 -0.17868273 0.0026642617 -0.29865894 0.062763765 -0.97508633 0.1615288
-0.22260411 -0.029218974 -0.10383884 -0.079105295 -0.5381414 0.321082 0.28956607 -0.080738984
-0.34556118 -0.11881568 -0.14829513 -0.09272362 -0.32652375 -0.09040068 -0.4930166 -0.10431128
-0.11557229 -0.18168275 0.07695236 -0.6698259 -0.108673684 -0.11660615 -0.047445092 0.06014245
0.3414577 -0.04423177 -0.29392645 0.3649813 0.012978391 0.019793576 -0.47319868 -0.119234845
-0.22341049 0.22497296 0.03619156 -0.3783552 0.17913692 -0.11810937 0.09809763 -0.079815485
-0.5704891 0.1538828 -0.23340428 0.11236216 -0.25386235 0.07731597 -0.09848748 -0.110017784
-0.051128104 -0.25223896 -0.39402136 -0.1984903 -0.5381646 -0.4153422 0.08383676 -0.3340316
-0.32217067 -0.16043249 0.14329164 -0.14705463 0.045865294 -0.39251634 -0.04666187 -0.15088256
-0.028579008 -0.21506675 0.043400474 -0.06114844 -0.39963406 -0.05976028 -0.2318928 -0.22117533
-0.2976395 0.032780103 -0.17429374 0.10521316 -0.23083168 -0.14039217 -1.3607582 -0.2312039
-0.31988427 -0.30595884 -0.10851101 0.100335434 -0.10102022 -0.10976829 -0.035638377 -0.22960886
-0.5377545 -0.14758208 0.27733335 -0.030646479 -0.32613888 -0.13531633 0.14105147 0.100803286
-0.14744596 -0.296304 0.23939198 -0.21488227 -0.238692 -0.16364276 0.11720186 -0.34487635
0.054099265 -0.31427294 -0.5629338 -0.3879083 0.006258169 -0.0035738721 -0.26670593 0.074156865

net.4.bias f4 [10]
00000000: 78e8 8e3e 3e72 133f 642f 733f 842d 933f
00000010: d49c a03f 6188 f13f 4818 f53f cfec 1a40
00000020: 2b18 1a40 6ffd 3840
0.27911735 0.57596195 0.9499419 1.1498265 1.254786 1.8869745 1.9148035 2.4207036
2.407725 2.8904684
