quantile_forecasters/1727157161.pt (torch, 97638 bytes, 6 tensors)

net.0.weight f4 [128, 17]
0	0x3f177c67	0.591742
1	0x3da668cd	0.08125458
2	0xbf98372c	-1.1891837
3	0x3f99b896	1.2009456
4	0x3eb73233	0.35780486
5	0xc00424e5	-2.0647519
6	0xbf05eb95	-0.52312595
7	0x3f62aa3d	0.88541013
8	0x3f2c59fb	0.673248
9	0xbfc676cb	-1.5505003
10	0xbfd0f57e	-1.6324918
11	0x3ead6013	0.3386236
12	0x400b230d	2.1740143
13	0x3e5e277f	0.21694754
14	0x3f867875	1.050551
15	0xbf86620b	-1.049867
16	0xbd10f5b1	-0.03539056
17	0x3e70144a	0.2344524
18	0xbe754ebc	-0.23955816
19	0x3ecb3e88	0.39696145
20	0xbdf940be	-0.12170552
21	0x3e1af853	0.1513379
22	0x3e75b0b5	0.2399319
23	0x3fdc01ac	1.718801
24	0x3fdf16a5	1.7428786
25	0xbf0a7c34	-0.5409577
26	0xbdc7fcd8	-0.09765023
27	0xbdb677d5	-0.08909575
28	0xbe91f5c0	-0.28507805
29	0x3e440510	0.19142556
30	0x3c74c57a	0.01493966
31	0xbdacac0b	-0.08431252
32	0xc05ea507	-3.4788225
33	0xbac7edaa	-0.0015253325
34	0x3d0e2f85	0.034713287
35	0x3e4968c9	0.19668879
36	0xbe068233	-0.13135605
37	0xc1beb7ad	-23.839685
38	0xbfd0854d	-1.629068
39	0xbda3dab6	-0.080007
40	0x3fb150e7	1.3852814
41	0xbd97cc1c	-0.07411978
42	0x3e892bf2	0.2679134
43	0x3ed373d5	0.4129931
44	0x3eb08855	0.34479013
45	0x3def1286	0.11673455
46	0x3ed0ba9d	0.40767375
47	0x3f0e56dc	0.55601287
48	0x3f4bea6c	0.79654574
49	0x3e2a842a	0.16651979
50	0xbd28a149	-0.04116944
51	0x3d9b70b0	0.07589853
52	0x3e6c8d51	0.23100783
53	0xbe8d75d4	-0.27628958
54	0x3e9dcbfe	0.30819696
55	0x3ea807ac	0.32818353
56	0xbd9cf479	-0.07663817
57	0x3e8b42b3	0.27199325
58	0xbdaa9d51	-0.08330787
59	0xc092a66f	-4.5828166
60	0x3f18f922	0.59755147
61	0x3d122df9	0.035688374
62	0xbd12a26d	-0.035799433
63	0x3fa3dd51	1.2801915
64	0x3f5bf875	0.8592599
65	0xbdae9dc9	-0.08526189
66	0x3f058953	0.52162665
67	0x3c22d82b	0.009939234
68	0x3f60ce5a	0.8781487
69	0x3d35d3bf	0.04439139
70	0x3ef763a4	0.48318207
71	0x3e249dff	0.16075896
72	0x3d927eb0	0.0715307
73	0xbe10abf5	-0.14128096
74	0x3e9c87d2	0.30572373
75	0xbe139525	-0.14412363
76	0x3db60cac	0.08889136
77	0x3f0dcef1	0.5539389
78	0x3ed488e2	0.41510683
79	0xbf3f7d09	-0.74800164
80	0xc20a8647	-34.63113
81	0x3f2ed809	0.68298393
82	0x3f1cd273	0.6125862
83	0x3ef4fbc0	0.4784832
84	0xbd2c8f8b	-0.04212908
85	0x3f6044ab	0.8760478
86	0x3eadb3c4	0.33926213
87	0x3f46b475	0.77619106
88	0x3e8eed9e	0.27915663
89	0xbf82bc74	-1.0213761
90	0xc1d27044	-26.304817
91	0xbf9143a3	-1.1348766
92	0xbba5b69d	-0.0050571696
93	0x3ef84d9a	0.48496705
94	0x3e3adb0b	0.18247621
95	0x3efc916b	0.49329695
96	0x3f0321e2	0.51223576
97	0x3f0e1177	0.554954
98	0xbe02f3d9	-0.12788333
99	0x3cf90a8a	0.030400533
100	0xbcff8988	-0.03119351
101	0xbd6295f0	-0.055318773
102	0xbf1225cf	-0.5708894
103	0xbe06d797	-0.13168178
104	0x3d9deaef	0.07710826
105	0xbea1f8aa	-0.31635028
106	0x3e84a727	0.25908777
107	0x3e0ef054	0.13958865
108	0xbf1d364a	-0.61410964
109	0xbed16782	-0.40899283
110	0xbfaee6b3	-1.3664154
111	0xbf2085ee	-0.6270436
112	0xbf001edc	-0.5004709
113	0x3e7379da	0.23776951
114	0x4040bb76	3.0114417
115	0x3fc6217e	1.5478971
116	0xbe2c5375	-0.16828711
117	0xc0058c80	-2.0867004
118	0xbd4f7ddf	-0.05065715
119	0xbfa42230	-1.2822933
120	0xbf823720	-1.0173073
121	0x3f31570f	0.69273466
122	0x3ef2feba	0.47459966
123	0x3ebbbf52	0.36669403
124	0x3f4447df	0.76672167
125	0x3eb9518b	0.36195025
126	0x3f57bf6e	0.84276474
127	0x3e80b20b	0.25135836
128	0x3f18328e	0.5945214
129	0xbd5b76eb	-0.053580206
130	0xc0ba2d5e	-5.818038
131	0xbf8695f1	-1.0514508
132	0x3efc2d9c	0.49253547
133	0x3f425b0d	0.7592018
134	0x3ef8325c	0.4847592
135	0x3f8c9ac0	1.0984726
136	0x3eaab5e1	0.33341888
137	0x3e8cda5d	0.27510348
138	0x3efdc079	0.49560907
139	0xbfaed633	-1.3659118
140	0xbf70ebb1	-0.94109637
141	0x3fa8df8d	1.3193222
142	0x3f8921e0	1.0713463
143	0xc082e771	-4.090752
144	0x3ff6358f	1.9235095
145	0x3e02b6c5	0.12765034
146	0xbf237b4b	-0.63860005
147	0x3ee8239c	0.45339668
148	0x3fb5b8d2	1.4197028
149	0xbfb34061	-1.4004022
150	0xbdb7fae1	-0.08983398
151	0x3e9bcdd9	0.30430487
152	0x3e9e325f	0.30897805
153	0xbd28b966	-0.041192435
154	0x3df7525a	0.12076254
155	0x3e92fa78	0.28706717
156	0xbf1559d8	-0.58340216
157	0xbe786439	-0.24256982
158	0x3eb150c4	0.34631932
159	0x3ec9c469	0.39407662
160	0xbee7e727	-0.45293543
161	0xbedab994	-0.4271971
162	0x3e0591c5	0.13043888
163	0x3f2eb153	0.68239325
164	0xbebc2003	-0.36743173
165	0x3f72933f	0.9475593
166	0x403889ae	2.8834033
167	0xc0b78e48	-5.7361183
168	0x3f76fa6f	0.9647588
169	0x3c108a23	0.008821997
170	0xbe9bdfcb	-0.30444178
171	0x3fb65ae2	1.4246485
172	0xbe687d00	-0.22703934
173	0x3ff99999	1.9499999
174	0xc03eddfe	-2.9822993
175	0xbedd2402	-0.43191534
176	0xbeafbab1	-0.34322122
177	0x3fa986f6	1.3244312
178	0xc08ebd55	-4.460612
179	0x3f80d742	1.0065691
180	0xbfcee067	-1.6162232
181	0x3fe11516	1.758456
182	0xc0104e81	-2.2547915
183	0x3f1dea62	0.61685765
184	0xbfdffe3e	-1.7499464
185	0x3f25f5b0	0.64828014
186	0xbe1cc2c8	-0.15308678
187	0x3a2c26f2	0.00065670826
188	0xbf201432	-0.62530816
189	0xbfb24a88	-1.3928995
190	0xbe49207f	-0.19641303
191	0x3fc23f3c	1.5175548
192	0x3ef10866	0.4707672
193	0xc04fdd10	-3.2478676
194	0x3f405be1	0.75140196
195	0xbe079ae1	-0.13242675
196	0xbf2669f3	-0.65005416
197	0xbf8d8dbb	-1.1058878
198	0xbf7b2eb1	-0.9811812
199	0x3eb44c73	0.35214576
200	0xbf077982	-0.5291978
201	0x3e0bb67a	0.13643828
202	0x3fe8cc0b	1.8187269
203	0xbfb76016	-1.4326198
204	0xbf319a38	-0.69375944
205	0x3ebebd6f	0.372539
206	0x3e0327f2	0.12808207
207	0x3ebe4091	0.37158635
208	0x3f13f89a	0.5780121
209	0x3da820f8	0.08209413
210	0x3f17e041	0.5932656
211	0x3f2aca04	0.667145
212	0x3ef2cf37	0.47423717
213	0x3f0c4d4d	0.5480545
214	0xbead7731	-0.33879998
215	0x3f3afba2	0.7304021
216	0xbf8c10a8	-1.0942583
217	0xc1cda03a	-25.703236
218	0x3db0d440	0.086342335
219	0x3f881810	1.0632343
220	0xbbdc73fa	-0.0067276927
221	0xbdbbda95	-0.091725506
222	0x3f3ca244	0.736851
223	0xbd27d710	-0.040976584
224	0xbfeea13c	-1.8642955
225	0xbfa2f7df	-1.2731894
226	0xbf8bebfa	-1.0931389
227	0xbf24c42f	-0.6436185
228	0xbca2790f	-0.019833116
229	0x3e685a68	0.22690737
230	0x3d18f268	0.03734055
231	0x3c8f66db	0.0175051
232	0x3f1064ac	0.56403613
233	0x3ff0d777	1.8815755
234	0x3f8d82bf	1.1055526
235	0xbd697af8	-0.057002038
236	0xbe3ab319	-0.18232383
237	0xbd4954d7	-0.049153175
238	0xbd04ca80	-0.03241968
239	0xbe4470ff	-0.1918373
240	0xbe3b09bc	-0.18265432
241	0x3ea77348	0.3270514
242	0x3ef2aaff	0.47396085
243	0x3ee2ad0a	0.44272643
244	0xbc79c569	-0.01524482
245	0x3e30f25e	0.17279956
246	0xbe36347a	-0.17793456
247	0xbdf8b52f	-0.12143933
248	0x3ece7668	0.40324712
249	0x3ed0464c	0.40678632
250	0xbf34a480	-0.7056351
251	0xbf1d326f	-0.6140508
252	0xbe9eceba	-0.31017095
253	0xbf2432f7	-0.64140266
254	0xbf68fe8a	-0.91013396
255	0x3e02cbb2	0.12773016

net.0.bias f4 [128]
0	0xc1ede1b5	-29.735209
1	0xbf5b3708	-0.85630846
2	0xc0b88d65	-5.76726
3	0xc1a7048d	-20.877222
4	0x414a7e4b	12.655833
5	0x40e1f8ea	7.061635
6	0xc216403c	-37.56273
7	0xc26d2200	-59.283203
8	0xc24f5d73	-51.84126
9	0xc1c41803	-24.511724
10	0xc2b21a89	-89.05183
11	0xc15b8158	-13.719078
12	0x406d4aca	3.7076898
13	0x40c1aac2	6.0520945
14	0x42b8dce4	92.43143
15	0x41d11dbb	26.139517
16	0xc1033504	-8.200443
17	0xc0586881	-3.3813784
18	0xc26a615b	-58.595074
19	0xc282dc22	-65.42995
20	0x421b8de6	38.888573
21	0xc2d9e81b	-108.95333
22	0xc287458e	-67.63585
23	0xc13926bd	-11.571958
24	0xbfb2b7d1	-1.3962346
25	0xc2012a65	-32.2914
26	0x40d825b1	6.754601
27	0xc1b4a603	-22.58106
28	0x40e44fb1	7.134728
29	0xc1dfed87	-27.99098
30	0xc13cbfbf	-11.796813
31	0xc1fc8c28	-31.568436
32	0xc1ad7caf	-21.68588
33	0xc00d3ba1	-2.2067645
34	0xbfb47f35	-1.410132
35	0xc3052a31	-133.16481
36	0x41278c33	10.471728
37	0xc00da071	-2.2129176
38	0xc1f7fd9c	-30.998833
39	0x41fdf7d4	31.74601
40	0x40013179	2.0186446
41	0xc1b6a561	-22.830751
42	0xc22a8da9	-42.63834
43	0xc1c7c16f	-24.96945
44	0xc29c0726	-78.01396
45	0x40c4946f	6.1431193
46	0x407495e1	3.821648
47	0xc0cfe489	-6.4966474
48	0x412b0eaf	10.691085
49	0xc2bdc22f	-94.879265
50	0xc2b0c075	-88.37589
51	0x41d1ab9f	26.2088
52	0x40eabe0e	7.3357
53	0xc1c3f861	-24.496279
54	0xc282928e	-65.28624
55	0xbf949b49	-1.1609889
56	0x41d277f9	26.30858
57	0xc29064be	-72.19676
58	0x40c747af	6.2275004
59	0xc1b2fd90	-22.37381
60	0xc104f0b7	-8.308768
61	0xc27e4691	-63.568913
62	0xc0f27300	-7.576538
63	0xc0e22f47	-7.068271
64	0xc29c1fae	-78.061874
65	0x413c84de	11.782438
66	0xc2b10772	-88.51454
67	0xc07e56de	-3.974052
68	0x41080684	8.501591
69	0xc140f11e	-12.0588665
70	0xc23a1b63	-46.526745
71	0xc2b99773	-92.7958
72	0xc0332d11	-2.7996256
73	0xbf072ca7	-0.5280251
74	0x412ecb13	10.924579
75	0x40047c3f	2.0700834
76	0xc28f7832	-71.73476
77	0x4074f88a	3.8276696
78	0xc1977ce0	-18.935974
79	0xc1d8b0c4	-27.086311
80	0xc260c7fb	-56.195293
81	0xc03ebef3	-2.9804046
82	0xc1adb439	-21.713
83	0x3ff9fdd3	1.9530586
84	0x411bc64f	9.735915
85	0xc2128729	-36.631992
86	0x415f0b78	13.9403
87	0xc18b650d	-17.424341
88	0x41b3a4d0	22.455475
89	0x408e5e9d	4.4490495
90	0xc2090be6	-34.26162
91	0xc252652a	-52.598793
92	0xc251d0df	-52.453976
93	0x411aff13	9.687274
94	0x3fe3b6b1	1.7790128
95	0xc22f4943	-43.821545
96	0xbf9b4c73	-1.2132705
97	0xc19bbdbc	-19.467644
98	0xc2b0b4ed	-88.35337
99	0x403e5aec	2.9742994
100	0xc1df6523	-27.924383
101	0xc20354dc	-32.83287
102	0xc1ffeb00	-31.989746
103	0x42326dd6	44.60726
104	0xbfebb55d	-1.8414723
105	0xc2435196	-48.829674
106	0xc1d100b8	-26.12535
107	0xc1e1ef92	-28.241978
108	0xc13b5e50	-11.7105255
109	0xc20d9039	-35.390842
110	0x4007419e	2.11338
111	0xc2a80310	-84.00598
112	0x42653a5a	57.306984
113	0xc2871bb9	-67.554146
114	0xc1a4b059	-20.586107
115	0xc07c16db	-3.938895
116	0x4083fd8f	4.124702
117	0xc147df11	-12.49196
118	0x406a5d57	3.661947
119	0xc28acc9c	-69.39963
120	0xc074627e	-3.8185115
121	0xc27efe9a	-63.748634
122	0x40a4a98b	5.145696
123	0xc17ca53c	-15.79034
124	0xc1dd5b93	-27.669714
125	0xc11cdc4d	-9.803784
126	0xc174df40	-15.304504
127	0xc147cad5	-12.48702

net.2.weight f4 [128, 128]
0	0xbdefae71	-0.11703194
1	0xbf8717ad	-1.05541
2	0xbf295093	-0.6613857
3	0xbf3abc86	-0.72943914
4	0xbf094cda	-0.5363289
5	0xbf55273c	-0.8326299
6	0xbead5250	-0.33851862
7	0xbf8ef42e	-1.1168268
8	0x3f30c046	0.69043386
9	0xbf49ccaa	-0.7882792
10	0xbe189c94	-0.1490348
11	0xbf1c0e75	-0.6095956
12	0xbf2dedeb	-0.6794116
13	0xbe9444bd	-0.28958693
14	0xbf2e7416	-0.68145883
15	0xbe89218a	-0.267834
16	0x3f62ac72	0.8854438
17	0xbd50d9e9	-0.050989065
18	0x3e8a4d10	0.2701192
19	0x3e56c586	0.20973787
20	0xbff0d623	-1.8815349
21	0xbe64e19f	-0.22351693
22	0x3e831ac6	0.25606364
23	0xbf1f92d9	-0.62333447
24	0xbf204102	-0.62599194
25	0xbf228db9	-0.634975
26	0xbed18dee	-0.40928596
27	0x3e4fe721	0.20303012
28	0xbe942556	-0.28934735
29	0xbfe3bf10	-1.7792683
30	0xbe7b31d4	-0.24530727
31	0xbf7eaf1e	-0.9948596
32	0xbed61489	-0.41812542
33	0xbf9a2836	-1.2043521
34	0xbf39a5c6	-0.72518575
35	0xbfb6d5ba	-1.4283974
36	0xbf4928fc	-0.7857816
37	0xbef8ec7f	-0.48617932
38	0xbf6e4fcf	-0.9309053
39	0xbf35effb	-0.71069306
40	0xbfe7f46a	-1.8121464
41	0xbf34a2a2	-0.7056066
42	0x3c192f43	0.009349647
43	0x3cfa0c8a	0.030523557
44	0xbf961e60	-1.172802
45	0x4011ad75	2.276212
46	0xbf2a8cde	-0.66621196
47	0xbf39e14e	-0.7260941
48	0x402a5358	2.661337
49	0x3ed8af76	0.42321366
50	0x3dbea5a8	0.0930894
51	0xbf5c2249	-0.85989815
52	0xbf0c8e24	-0.5490439
53	0xbedf48d8	-0.43610263
54	0xbeb9bae1	-0.3627539
55	0x3daa628d	0.08319578
56	0x3f106750	0.5640764
57	0x3ea92ace	0.3304047
58	0xbf5c976e	-0.86168563
59	0xbe8ac18f	-0.27100798
60	0xbddaf5e4	-0.10691431
61	0xbe5b44c4	-0.21412951
62	0x3e03e4d7	0.12880264
63	0xbf818c5c	-1.0120959
64	0x3eb4ed3c	0.35337245
65	0xc0029f03	-2.0409553
66	0x3db1dcbf	0.08684682
67	0xbf5d7035	-0.8649934
68	0xbeafdc7f	-0.34347913
69	0xbfab2c6c	-1.3372931
70	0xbd9a8a75	-0.0754594
71	0xbf84144e	-1.0318696
72	0x4017b162	2.3702016
73	0x3f3f0394	0.74614835
74	0xbe37415d	-0.17896028
75	0x3f7c43bc	0.98540854
76	0xbf39e9bd	-0.7262228
77	0xbf80c942	-1.0061419
78	0xbf1b78a7	-0.60730976
79	0xbf5c13e9	-0.8596788
80	0xbefe4229	-0.4965985
81	0xbf06c68e	-0.5264672
82	0xbe31fc58	-0.17381418
83	0xbcf2ea73	-0.02965281
84	0xbf8c286f	-1.0949839
85	0xbf28246d	-0.6568058
86	0x3f93d119	1.1548187
87	0x3f07f635	0.5311006
88	0x3e9b482f	0.3032851
89	0x3eccd6e3	0.40007696
90	0x3dc085f6	0.09400551
91	0x3dfc924a	0.1233259
92	0xbf05201c	-0.5200212
93	0x3f691f0b	0.9106299
94	0xbf29475d	-0.66124517
95	0xbf0a8fd7	-0.5412573
96	0xbf835968	-1.026166
97	0xbf1927cd	-0.59826356
98	0x3f33ceee	0.70237625
99	0xbfbab054	-1.4585061
100	0x3eb866e1	0.3601599
101	0xbf3a20f1	-0.72706515
102	0x3f57373a	0.84068644
103	0xbe7bddea	-0.24596372
104	0xbccbc1a2	-0.024872605
105	0xbe996d1d	-0.2996606
106	0xbe179f44	-0.14806849
107	0x3c417f2e	0.011810107
108	0xbf1e673f	-0.6187629
109	0x3e2cf30c	0.1688959
110	0xbf334d5d	-0.7003992
111	0xbd09b4ac	-0.033619568
112	0xbf998bdd	-1.1995808
113	0xbdabcb26	-0.08388357
114	0x3e8c2222	0.2736979
115	0x3f680233	0.90628356
116	0xbf0f8c37	-0.56073326
117	0x3e02356d	0.12715693
118	0xbf563cc3	-0.83686465
119	0x3ece845a	0.4033535
120	0xbf0cb161	-0.5495816
121	0xbcfd439a	-0.030916024
122	0xbe47dfd4	-0.19518977
123	0xbf114ea6	-0.56760633
124	0xbdc9f537	-0.09861224
125	0xbf7074ab	-0.9392802
126	0xbf2ee174	-0.68312764
127	0x3e8314b6	0.2560174
128	0xbf8abb11	-1.0838338
129	0x3f95addf	1.1693686
130	0xbe2bce34	-0.16777879
131	0xbfa0c232	-1.2559264
132	0xbdcd16f5	-0.10014144
133	0xbff9d15b	-1.9517015
134	0x3f8e729a	1.1128724
135	0xbe35e665	-0.1776367
136	0xbf3ef2a3	-0.74588984
137	0x3f4946a2	0.786234
138	0xc0abe4c7	-5.371677
139	0x3f725d45	0.9467357
140	0x3e1b1e6b	0.15148322
141	0x3da5138c	0.08060369
142	0xbf859798	-1.0436888
143	0xbf9a1493	-1.2037529
144	0xc040b103	-3.010804
145	0xbef81fd2	-0.48461777
146	0xbf30fddb	-0.6913735
147	0xc01516c7	-2.3295152
148	0xc1fd4389	-31.657976
149	0x40276df6	2.6160865
150	0x3fa53f7d	1.291
151	0xbc90842a	-0.017641146
152	0xbf166b58	-0.58757544
153	0x400d1034	2.204114
154	0x3f92b413	1.1461204
155	0xbea485c0	-0.32133293
156	0xbf02f416	-0.51153696
157	0xbff1cca9	-1.8890582
158	0x3f0c6ab4	0.54850316
159	0xc0604cc8	-3.5046864
160	0xbf0d97a7	-0.5530953
161	0xbe56f937	-0.20993505
162	0x3ee3df8c	0.4450649
163	0xc11c2775	-9.759633
164	0x3e99b82f	0.30023333
165	0xc0c27a99	-6.0774655
166	0xc01cbb40	-2.4489288
167	0x3ec9d896	0.39423054
168	0xbcfa48bf	-0.030552266
169	0x3e555d92	0.20836475
170	0x3efdfc35	0.4960648
171	0x3fa713cb	1.3052915
172	0xbfb597d8	-1.4186964
173	0xc079fe6b	-3.9061534
174	0x40371ef5	2.8612645
175	0x3b26fbee	0.0025479752
176	0xc04b32da	-3.1749787
177	0xc1159cbd	-9.350766
178	0x3f5ec1d2	0.87014496
179	0xbf124528	-0.57136774
180	0x3f80623c	1.0029979
181	0xbd56e344	-0.05246283
182	0xbf962953	-1.1731361
183	0x3e9c9839	0.30584887
184	0xbf4a50cd	-0.7902954
185	0x40cb5b4d	6.354895
186	0x3f5e618b	0.8686759
187	0xbd82d256	-0.06387775
188	0x3f4fe9e0	0.8121624
189	0xbfb34000	-1.4003906
190	0xbf839014	-1.0278344
191	0x3f29fb38	0.66398954
192	0xbf58d5dd	-0.8470133
193	0xbeca38fb	-0.39496598
194	0xc00cf744	-2.202592
195	0xc0d7289a	-6.7237062
196	0xbe9d21c8	-0.30689836
197	0x3e5e937c	0.21735948
198	0xbed8b675	-0.42326704
199	0x40326e62	2.7879872
200	0xc1673ef0	-14.452866
201	0xc032d772	-2.7943997
202	0xc05a3337	-3.409376
203	0xc074fdee	-3.8279986
204	0xbf0fc03c	-0.561527
205	0x3f298dce	0.66232
206	0x3f62ef64	0.8864653
207	0x3f526743	0.82188815
208	0xc1129086	-9.160284
209	0x3f22d08b	0.6359946
210	0x3f2c89aa	0.6739756
211	0xbf4944b4	-0.7862046
212	0xc109e0bc	-8.617367
213	0xbfe2be12	-1.7714255
214	0x3f815e34	1.0106874
215	0xbfdf09c3	-1.7424854
216	0xc10237d6	-8.138632
217	0xc0c2b071	-6.0840383
218	0x3d2248aa	0.03962008
219	0xbe3b4429	-0.1828772
220	0xbf0cbdd9	-0.54977185
221	0xbe84c166	-0.259288
222	0x3f390c14	0.72284055
223	0x3ff951e6	1.9478118
224	0x3f89a190	1.075243
225	0x3e1c8cab	0.15288036
226	0x3f140e7d	0.5783461
227	0x3f659a31	0.896884
228	0xc08f4576	-4.477229
229	0xbeca163d	-0.3947009
230	0xc07b0d9d	-3.922706
231	0xbed9bb59	-0.42525747
232	0x3ecafb1e	0.39644712
233	0xbf0cbc4c	-0.5497482
234	0xbf07422d	-0.5283535
235	0xc040320d	-3.0030549
236	0xbf597145	-0.8493846
237	0xbedcca92	-0.431233
238	0xbf2118a0	-0.629282
239	0xbf9c0175	-1.2187945
240	0x3d76eec1	0.060286287
241	0x3de068f8	0.10957521
242	0xbfb6b73b	-1.4274668
243	0xbf7a451b	-0.97761697
244	0xc181ba96	-16.216106
245	0x3f774324	0.96586823
246	0xbf64b1de	-0.89333904
247	0xbf82d91c	-1.0222507
248	0xbe3576ee	-0.1772115
249	0xc0c7d36b	-6.244558
250	0x3efaf6d8	0.49016452
251	0x3e245df2	0.16051462
252	0xc093e4ac	-4.621664
253	0x3ee81563	0.45328817
254	0x3d816d30	0.06319654
255	0x3f2e3ef2	0.68064797

net.2.bias f4 [128]
0	0xbf6ed0da	-0.9328743
1	0x40864483	4.1958632
2	0x41bd3da2	23.655094
3	0xc1b7c08f	-22.969023
4	0xc07cc410	-3.9494667
5	0x41185574	9.520863
6	0xc096b4cb	-4.7095695
7	0xc1d1b24e	-26.212063
8	0xc1da46db	-27.284597
9	0xc26664d6	-57.598473
10	0xc10dc997	-8.861716
11	0xc1262b04	-10.385502
12	0xc05c96e9	-3.4467108
13	0xc189d965	-17.23115
14	0x401574bc	2.33525
15	0xc140a686	-12.040655
16	0xc18ae726	-17.362865
17	0xc29f4650	-79.63733
18	0xc12acfad	-10.675702
19	0xc0d861a3	-6.7619185
20	0x3e26a94f	0.16275524
21	0xc272c5f2	-60.693306
22	0xbf6e4a77	-0.93082374
23	0xbf062e4d	-0.524144
24	0x3f1865cd	0.59530336
25	0xc2f6f18c	-123.47177
26	0x4052ab8b	3.2917202
27	0xc2b09ad8	-88.30243
28	0xc2d9739b	-108.72579
29	0x3e0ddc2d	0.13853522
30	0xc284e816	-66.45329
31	0xc2b0fac6	-88.48979
32	0xc0f91dd8	-7.784893
33	0xbc8511d0	-0.016243845
34	0xbf1a1c43	-0.60199374
35	0xbe0be484	-0.1366139
36	0xc194ced9	-18.601
37	0xc019974a	-2.399859
38	0xc258764a	-54.115517
39	0xc2234faa	-40.827797
40	0xc1d8194d	-27.012354
41	0xc1cba635	-25.456156
42	0x3fc48324	1.5352521
43	0xc2062500	-33.536133
44	0x40311979	2.7671797
45	0xc2f2b259	-121.348335
46	0xc0c13489	-6.037663
47	0xc2151968	-37.27481
48	0xc26d829f	-59.37756
49	0xc11cbe28	-9.796425
50	0xbfa3934e	-1.2779329
51	0xc0c25d4c	-6.073889
52	0xbf58508a	-0.8449789
53	0xbf3b66c4	-0.7320368
54	0xc1c50a0e	-24.62991
55	0x3f9a8108	1.2070627
56	0xc18ad6e1	-17.354921
57	0xc25ece24	-55.70131
58	0xbf82f2cb	-1.0230345
59	0xbf855bf6	-1.0418689
60	0x41797589	15.591195
61	0xc14e0ed9	-12.878625
62	0xc1e13173	-28.149145
63	0x3f042ad2	0.5162784
64	0xbf018455	-0.5059255
65	0x410fa85b	8.978602
66	0xc1638fd1	-14.222611
67	0xbf6798dd	-0.90467626
68	0x410395fd	8.224118
69	0xc0cb6563	-6.3561263
70	0xc2c4a2be	-98.317856
71	0xbe8511d7	-0.25990173
72	0x401d79be	2.4605556
73	0xc2fd5757	-126.670586
74	0xbf2d9a6b	-0.6781375
75	0xbf11a0ab	-0.56885785
76	0x3f720539	0.9453922
77	0xbf4779cb	-0.77920216
78	0xc204e3cc	-33.222458
79	0xc2870d79	-67.52631
80	0xc1de2f14	-27.772987
81	0xc29d0001	-78.50001
82	0xc012eb98	-2.2956295
83	0xc1a50e74	-20.632057
84	0xc163b39c	-14.23135
85	0xbfc2ce1a	-1.5219147
86	0xc1246bd7	-10.276328
87	0xbff6d4c5	-1.9283682
88	0xc27f6cad	-63.85613
89	0xc21c4b0f	-39.0733
90	0x40e7765c	7.233198
91	0x402ad319	2.6691344
92	0xc229aa51	-42.416325
93	0xc2c1b956	-96.861984
94	0xc27455ff	-61.08398
95	0xc12654a5	-10.395665
96	0x40c9a196	6.300975
97	0x41403291	12.012345
98	0xc2b9712c	-92.72104
99	0xc170b6fd	-15.044675
100	0xbf1cb775	-0.61217433
101	0xbf24d784	-0.6439135
102	0xbee23182	-0.44178396
103	0xc12b9c30	-10.725632
104	0xc1b9bdf7	-23.217756
105	0xbf581393	-0.8440487
106	0xc07afaa0	-3.921547
107	0xc1e63c93	-28.779577
108	0xc191e823	-18.238348
109	0xbf41b5af	-0.7566785
110	0xbf11992a	-0.56874335
111	0xc1f23f20	-30.280823
112	0x40ec7c3c	7.3901653
113	0xc0e7ab55	-7.2396646
114	0xc1203ae6	-10.0143795
115	0xc26a3f0b	-58.561565
116	0xbf592b76	-0.8483194
117	0xc25fea5f	-55.978878
118	0xbf8cdc50	-1.1004734
119	0xbf82fc1f	-1.0233191
120	0x412c38a4	10.763828
121	0xc25c9e86	-55.154808
122	0xbf70e14c	-0.94093776
123	0xc3026943	-130.41118
124	0xc023c3f0	-2.558834
125	0xc31a83f2	-154.51541
126	0xbf96c947	-1.1780175
127	0x407673df	3.8508222

net.4.weight f4 [38, 128]
0	0x3dec5cc0	0.11541128
1	0x3c481046	0.012210911
2	0x3d31cf21	0.043410424
3	0x3cf9cd3e	0.030493375
4	0xbe1e771e	-0.15475127
5	0x3afeb64e	0.0019432993
6	0xbe345218	-0.17609441
7	0x3cfc97de	0.030834135
8	0x3d5b9030	0.053604305
9	0xbd727829	-0.059196625
10	0x3d4522b5	0.048128802
11	0xbe3c472a	-0.18386522
12	0x3e083afe	0.13303754
13	0xbbb0617a	-0.005382714
14	0xbdc02b24	-0.093832284
15	0x3c66f7c1	0.014097155
16	0x3e1a072e	0.15041801
17	0x3d93d6f5	0.07218734
18	0x3a863c24	0.0010241312
19	0xbd1f6498	-0.038914293
20	0xbdbdd4ef	-0.092691295
21	0x3dbde8d6	0.092729256
22	0x3e786b88	0.2425977
23	0x3e81806d	0.25293294
24	0xbe4310d7	-0.19049393
25	0x3e24ae69	0.16082157
26	0xbed6e692	-0.41972786
27	0x3dfaade3	0.122401975
28	0xbcb10f37	-0.0216137
29	0xbe024f2a	-0.12725511
30	0xbd869b65	-0.06572608
31	0x3df69233	0.12039604
32	0x3d88e4b8	0.0668425
33	0x3db27273	0.08713236
34	0x3e660098	0.22461164
35	0x3e16074a	0.14651218
36	0x3dbcc655	0.09217516
37	0xbd9183a0	-0.071051836
38	0xbe8407eb	-0.2578729
39	0xbd7f8f36	-0.062392436
40	0x3dcf2e0a	0.10116203
41	0xbdf38893	-0.11891284
42	0xbe21166c	-0.1573121
43	0xbe9a8d69	-0.30186012
44	0x3c6d8834	0.014497805
45	0xbdc1ff25	-0.09472493
46	0x3d3340fe	0.043763153
47	0x3d882c39	0.0664906
48	0x3da467f7	0.08027642
49	0x3e42344f	0.18965267
50	0x3d8774a5	0.06614045
51	0xbdc15895	-0.09440724
52	0xbebcb49c	-0.36856544
53	0x3e92ba3d	0.28657714
54	0x3da33902	0.07969858
55	0xbdb0959e	-0.08622287
56	0x3da41b18	0.0801298
57	0x3cf8cd0d	0.030371213
58	0xbdb2e8cc	-0.08735809
59	0x3e788f84	0.24273497
60	0xbd93d589	-0.07218463
61	0xbe8781f3	-0.2646633
62	0xbc99ef8d	-0.018790985
63	0x3e2a6a08	0.1664201
64	0x3eac4eae	0.33653778
65	0xbd721b99	-0.05910835
66	0x3c8d41c7	0.01724328
67	0x3e24cea4	0.16094452
68	0x3d8b7256	0.06808917
69	0x3c8ab874	0.016933657
70	0x3dccd8f4	0.10002318
71	0xbc9533d2	-0.018213186
72	0xbf0409e4	-0.5157759
73	0x3ded0726	0.11573629
74	0xbe3aef44	-0.18255335
75	0x3e7ed80c	0.24887103
76	0xbe56848a	-0.20948997
77	0x3d6d754a	0.057973184
78	0xbc970ced	-0.01843878
79	0xbe4de49b	-0.20106737
80	0x3dfba41e	0.12287162
81	0x3d9441b0	0.072390914
82	0x3c8c94d5	0.017160812
83	0xbe82e3f9	-0.25564554
84	0x3d590bdc	0.052989826
85	0x3e2e22dc	0.17005485
86	0xbf965e1d	-1.1747471
87	0x3ab2cd65	0.0013641535
88	0xbddad894	-0.1068584
89	0x3d36ed00	0.044659615
90	0x3d7766ea	0.06040088
91	0xbcaea4ab	-0.021318754
92	0x3d83957d	0.06424997
93	0x3e45ba26	0.19309291
94	0x3da2e81b	0.07954427
95	0xbdb8fbdc	-0.09032413
96	0x3e1ab84e	0.15109369
97	0xbe611f62	-0.21984628
98	0xbe0bfa8e	-0.13669798
99	0x3dab4847	0.08363395
100	0x3ed18660	0.40922832
101	0xbd058752	-0.032599755
102	0x3eabcd15	0.33554903
103	0x3da66692	0.081250325
104	0xbe993c9f	-0.29929063
105	0x3ebd4773	0.36968574
106	0x3d4fb39b	0.050708394
107	0xbdff3422	-0.124611154
108	0xbe6b07f1	-0.22952248
109	0x3eb6a145	0.35669914
110	0xbf8bb51c	-1.0914645
111	0x3d091e40	0.033476114
112	0x3cab6ee5	0.020926902
113	0xbe619046	-0.22027692
114	0xbe06969b	-0.13143389
115	0x3de80c57	0.11330479
116	0x3e65fe9e	0.2246041
117	0x3db9ab5b	0.090658866
118	0x3eab5773	0.33465156
119	0x3e6fbe25	0.23412378
120	0xbd9680da	-0.07348795
121	0x3e4a3a58	0.19748819
122	0x3e8a408a	0.27002364
123	0xbe6e4ee0	-0.23272276
124	0xbe9459f0	-0.28974867
125	0x3df01b18	0.11723918
126	0x3e97a7ad	0.29620114
127	0x3e14d162	0.14532998
128	0x3e0b269f	0.13588952
129	0x3c8b0f86	0.016975176
130	0x3d15f7bb	0.036613207
131	0x3ca2081a	0.019779254
132	0xbe52ad3e	-0.20573899
133	0x3bc045b5	0.0058676847
134	0xbe5c14a5	-0.2149225
135	0x3d78aa29	0.060709152
136	0x3dcc58f3	0.09977903
137	0xbd5214cf	-0.051289376
138	0x3d6d0024	0.057861462
139	0xbe056cff	-0.1302986
140	0x3e349767	0.1763588
141	0x3ad24ce1	0.001604464
142	0xbe24fbf9	-0.16111745
143	0xbaa961ac	-0.0012922785
144	0x3e09ba79	0.1345004
145	0x3d8dc590	0.06922448
146	0xbb932de2	-0.0044915536
147	0xbd5aed30	-0.053448856
148	0xbe336e3e	-0.17522523
149	0x3db8d288	0.09024531
150	0x3e7e91db	0.24860327
151	0x3e9d3bf0	0.3070979
152	0xbe8ce4d4	-0.27518332
153	0x3e474ee9	0.19463696
154	0xbf20ce2c	-0.62814593
155	0x3e01fdb4	0.12694436
156	0xbd88ccce	-0.066796884
157	0xbe28c7e4	-0.16482502
158	0xbda8585a	-0.08219977
159	0x3dcb27c9	0.09919698
160	0x3d8db231	0.06918753
161	0x3d85f267	0.06540375
162	0x3e65b061	0.22430564
163	0x3dbf58af	0.09343087
164	0x3dfa5614	0.12223449
165	0xbd8b7f2f	-0.06811368
166	0xbe990cb1	-0.29892495
167	0xbd91d54e	-0.07120763
168	0x3de59b25	0.11211232
169	0xbe2befce	-0.16790697
170	0xbe46f3b9	-0.1942891
171	0xbe0b0ace	-0.1357834
172	0x3c80388f	0.01565197
173	0xbe1feb87	-0.1561719
174	0x3d4b250f	0.04959589
175	0x3d90b495	0.07065693
176	0x3e05a423	0.13050894
177	0x3e738426	0.2378088
178	0x3e0ba4bf	0.13637064
179	0xbe8fa2ac	-0.28053796
180	0xbeaa0dd6	-0.3321368
181	0x3e97f68b	0.29680285
182	0x3d97d1a9	0.074130364
183	0xbdacc738	-0.084364355
184	0x3db8e5f0	0.09028232
185	0x3d92f29a	0.07175179
186	0xbdeb3abb	-0.11485811
187	0x3e8abf2f	0.27098987
188	0xbdc7cb94	-0.09755626
189	0xbe8b3af5	-0.27193418
190	0xbca2425b	-0.019807031
191	0x3e7032a8	0.23456824
192	0x3eb8894f	0.36042258
193	0xbd972df1	-0.073818095
194	0x3ce919bb	0.028454652
195	0x3cb8ce9a	0.022559453
196	0x3d8c84ef	0.068612926
197	0x3d3cc8c5	0.046089906
198	0x3e0fd09b	0.1404442
199	0x3cd19f0b	0.025588533
200	0xbf06916a	-0.52565634
201	0x3daf49f7	0.085590295
202	0xbe04e42a	-0.12977663
203	0x3e6d965f	0.23201893
204	0xbe671175	-0.22565253
205	0x3d89761b	0.0671198
206	0xbcae8024	-0.021301337
207	0xbdedc5f1	-0.1161002
208	0x3dccf309	0.10007293
209	0x3dc5f498	0.09665793
210	0x3cba9569	0.022776322
211	0xbe961767	-0.2931473
212	0x3d7c48b4	0.061592773
213	0x3ea4b205	0.32167068
214	0xbfa92044	-1.3212972
215	0x3c5e4d68	0.01356826
216	0xbdfb34c1	-0.122659214
217	0x3d867ad7	0.065663986
218	0x3d8ef3d6	0.06980102
219	0xbc7aa3aa	-0.01529781
220	0x3d688129	0.0567638
221	0x3e83c4cd	0.25736085
222	0x3db830aa	0.08993657
223	0xbdd90e6d	-0.105984546
224	0x3e31c378	0.17359722
225	0xbeaa81da	-0.33302194
226	0xbe582ef0	-0.21111655
227	0x3dabcbd9	0.0838849
228	0x3e8b6a42	0.27229506
229	0x3d6b4da9	0.05744711
230	0x3e99abbe	0.3001384
231	0x3dc4ff4c	0.096190065
232	0xbebafa97	-0.3651931
233	0x3e6b5da8	0.22984946
234	0x3d80b682	0.062848106
235	0xbe2a879b	-0.16653292
236	0xbebbd448	-0.36685395
237	0x3eb2f62c	0.3495344
238	0xbfb9cd13	-1.4515709
239	0x3d25d5d5	0.04048713
240	0x3c97ee12	0.018546138
241	0xbe83728c	-0.2567333
242	0xbe499d68	-0.19688952
243	0x3dfd4ca1	0.123681314
244	0x3e49c3ab	0.19703548
245	0x3dd58a90	0.10426819
246	0x3e943a72	0.2895084
247	0x3eb7de3c	0.3591174
248	0xbdc34314	-0.095342785
249	0x3e61f250	0.22065091
250	0x3e920fb7	0.28527614
251	0xbe5ee1c0	-0.21765804
252	0xbe8c6f12	-0.2742849
253	0x3e0f3b12	0.13987377
254	0x3e9eb9d4	0.3100115
255	0x3e83940e	0.25698894

net.4.bias f4 [38]
0	0xbeab42f6	-0.33449525
1	0xbe780cd6	-0.24223647
2	0xbdf3b02f	-0.11898839
3	0xbd8f52b5	-0.06998197
4	0xba4d6a25	-0.0007835946
5	0x3e57631a	0.21033898
6	0x3d57e195	0.052705366
7	0x3e6d76dd	0.23189874
8	0x3d18c5be	0.037297957
9	0x3e4900e4	0.19629246
10	0x3e00c4ce	0.12575075
11	0x3e9e2ef6	0.30895203
12	0x3e76580b	0.24057023
13	0x3e9f3d28	0.31101346
14	0x3e58f747	0.21188079
15	0x3edc1f26	0.42992514
16	0x3eaae5cc	0.33378446
17	0x3f11ee97	0.57004684
18	0x3ee12cde	0.43979543
19	0x3f1553dd	0.5833109
20	0x3ed6c07b	0.41943726
21	0x3f35a372	0.7095252
22	0x3ef97187	0.48719427
23	0x3f2c36ad	0.6727093
24	0x3eff3a3e	0.49849123
25	0x3f25bcdc	0.647413
26	0x3f059ae7	0.5218949
27	0x3f391faf	0.7231397
28	0x3f146743	0.57970065
29	0x3f54b245	0.8308452
30	0x3f587185	0.8454822
31	0x3f5b99ce	0.8578156
32	0x3f5dbc17	0.8661513
33	0x3f9494e6	1.160794
34	0x3f856993	1.0422844
35	0x3fbe57a0	1.4870491
36	0x3fac94a0	1.3482857
37	0x3fc13f21	1.509739
