quantile_forecasters/one_warehouse_long.pt (torch, 97638 bytes, 6 tensors)

net.0.weight f4 [128, 17]
0	0x3e40d07b	0.18829529
1	0x3ebd23fd	0.3694152
2	0x3d79de65	0.061003108
3	0xbe8ed6f8	-0.27898383
4	0xbe2564f7	-0.16151796
5	0x3dc79b7e	0.09746455
6	0xbe1facd7	-0.15593277
7	0x3d884efe	0.066556916
8	0xbc4c8b1d	-0.012484339
9	0xbe8f7235	-0.2801682
10	0xbbbcd901	-0.0057631736
11	0xbe58a9b0	-0.2115848
12	0x3e35971f	0.1773343
13	0x3d694798	0.056953043
14	0x3e3076f8	0.17232883
15	0xbd912ff9	-0.07089228
16	0x3f1722fd	0.5903776
17	0xbdc54a89	-0.09633357
18	0xbe1fced0	-0.15606236
19	0xbd624f76	-0.05525156
20	0xbe9f4a8a	-0.31111556
21	0x3de4556e	0.11149107
22	0x3df4aed4	0.11947408
23	0x3d5a7c34	0.053341106
24	0x3e93faf1	0.2890239
25	0x3e1f74bf	0.15571879
26	0x3e2bba29	0.16770233
27	0xbe241330	-0.16022944
28	0xbf0bd84e	-0.5462693
29	0xbf0a497d	-0.54018384
30	0xbef10456	-0.4707362
31	0xbf96e419	-1.178836
32	0xbed2447a	-0.41067868
33	0x3db8151e	0.08988403
34	0xbf0cfd3f	-0.5507392
35	0xbf9a220a	-1.2041638
36	0xbf6e2622	-0.93026936
37	0xbb84b980	-0.0040504336
38	0xbee5ae4a	-0.44859535
39	0xbeea6e59	-0.45787314
40	0xbeaadcc6	-0.33371562
41	0xbec12c54	-0.37729132
42	0xbe67c3fb	-0.22633354
43	0x3e5df8af	0.21676897
44	0x3ef8c2dd	0.4858617
45	0x3ed25ee1	0.41088012
46	0xbd1959ea	-0.037439264
47	0xbe887b52	-0.26656586
48	0xbf0f8f8c	-0.5607841
49	0xbf889bdd	-1.0672566
50	0xbe3364ba	-0.17518893
51	0x3e0694b7	0.13142668
52	0xbdc001f0	-0.093753695
53	0xbeec75d7	-0.46183655
54	0x3e51699e	0.20450446
55	0xbdaad957	-0.083422355
56	0xbf0327cc	-0.512326
57	0xbf3e1845	-0.7425578
58	0xbf244b7c	-0.6417768
59	0xbf0de21b	-0.55423135
60	0xbf3ce632	-0.7378875
61	0xbf42d1f4	-0.76101613
62	0xbf131574	-0.5745461
63	0xbf67d6bd	-0.9056204
64	0xbf6a0e84	-0.914284
65	0x3d7e98f6	0.062157594
66	0x3d43fb29	0.047846947
67	0xbec19b78	-0.37813926
68	0xbfa5a616	-1.294131
69	0xc00b9a4c	-2.1812925
70	0xbe2c69d7	-0.1683725
71	0x3dbd4558	0.09241742
72	0x3ea3b499	0.31973723
73	0x3e710d75	0.2354029
74	0x3e258276	0.16163048
75	0xbe7cf99d	-0.24704595
76	0x3e1d2e42	0.15349677
77	0x3e089391	0.13337542
78	0x3e235885	0.15951736
79	0x3e30222d	0.17200537
80	0xbe24eda7	-0.16106282
81	0x3d86e08d	0.065857984
82	0x3db8c57d	0.09022043
83	0x3cf2cb1e	0.02963787
84	0xbd70eceb	-0.058819693
85	0xbee292a2	-0.44252497
86	0xbef88947	-0.48542234
87	0xbf185a23	-0.5951254
88	0xbde00cbf	-0.10939931
89	0x3df0107c	0.11721894
90	0xbf02a90b	-0.5103919
91	0xbe032283	-0.12806134
92	0x3e8d9710	0.27654314
93	0xbee7c500	-0.45267487
94	0xbf01bd45	-0.5067943
95	0x3e039058	0.12848032
96	0x3e3f0880	0.18655586
97	0xbf46147c	-0.77375007
98	0x3e6ad548	0.22932923
99	0xbc8908ec	-0.016727887
100	0x3c887368	0.016656592
101	0x3c5dfab7	0.013548545
102	0x3e9dbd5d	0.30808535
103	0xbf7cbf37	-0.9872927
104	0xbfad20a1	-1.3525583
105	0xbf8c4065	-1.0957152
106	0xbe2fb5fb	-0.17159264
107	0x3e24c82b	0.16091983
108	0x3e53d255	0.20685704
109	0x3eb564f3	0.3542858
110	0x3dec87d8	0.11549348
111	0xbb1aba07	-0.0023609416
112	0xbdfa304c	-0.12216243
113	0xbe7ca140	-0.24670887
114	0x3dbcaa29	0.09212143
115	0x3d714e67	0.05891266
116	0x3c21eab6	0.00988262
117	0x3c8311c6	0.015999686
118	0xbcf54b8f	-0.029943256
119	0xbd8e11fa	-0.069370225
120	0xbe5f91bc	-0.21832937
121	0xbe6e645a	-0.23280469
122	0xbd320d01	-0.043469433
123	0x3e20bea3	0.15697722
124	0xbe2e13ac	-0.16999692
125	0x3e435577	0.19075571
126	0x3dcbf804	0.099594146
127	0xbcea0f3b	-0.028571716
128	0x3d7bba73	0.06145711
129	0x3e8b03e3	0.27151403
130	0xbde0c2ee	-0.1097468
131	0x3e987127	0.29773828
132	0x3e4c6bd8	0.19963014
133	0xbd8745e4	-0.066051275
134	0xbe271fc1	-0.16320707
135	0xbe05a528	-0.13051283
136	0xbe8656aa	-0.26237994
137	0x3e3a951f	0.18220948
138	0xbe2909ca	-0.1650764
139	0x3dfb3d9e	0.12267612
140	0x3cf6325b	0.030053308
141	0xbd77ef48	-0.06053093
142	0x3dc5b9fa	0.09654613
143	0xbdec6759	-0.115431495
144	0x3ce45f6a	0.027877528
145	0x3e963102	0.29334265
146	0x3d351650	0.044210732
147	0xbca77946	-0.02044357
148	0xbe6e723f	-0.23285769
149	0xbdf0151e	-0.11722778
150	0xbe2e241b	-0.1700596
151	0x3e8725ed	0.26396123
152	0xbebfbc6f	-0.3744845
153	0x3dd09119	0.10183925
154	0x3e5d6210	0.21619439
155	0x3e303fa1	0.17211773
156	0x3e5e270c	0.21694583
157	0x3d6d4bda	0.057933666
158	0x3d45b4f6	0.04826828
159	0xbd1aa784	-0.03775741
160	0x3d8a64fb	0.06757542
161	0x3cc9613d	0.0245825
162	0x3d8e3845	0.06944326
163	0x3c397cb5	0.011321236
164	0x3cecce63	0.028907007
165	0xbd174cbc	-0.036938414
166	0xbd8c2201	-0.06842423
167	0xbe4081ce	-0.18799517
168	0xbf4dd3c4	-0.80401254
169	0x3c5ebbbc	0.013594564
170	0x3e9c9cd0	0.30588388
171	0x3d258920	0.040413976
172	0xbdc2e8b8	-0.09517044
173	0xbe3ea35a	-0.18617001
174	0xbdb02db8	-0.0860247
175	0xbe1304d4	-0.1435731
176	0x3e0aa4bd	0.13539405
177	0x3bd92abc	0.006627409
178	0x3dd6e3d3	0.10492673
179	0xbe5080ed	-0.20361681
180	0xbe16d10d	-0.14728184
181	0x3da79577	0.08182805
182	0x3de5e637	0.112255506
183	0x3e15796f	0.14597104
184	0x3cd01f02	0.02540541
185	0x3d98bb4d	0.074576
186	0xbf931009	-1.1489269
187	0x3eb2eed7	0.34947845
188	0x3de6c038	0.112671316
189	0x3eca3430	0.3949294
190	0x3e2fe05b	0.17175429
191	0xbe02ad40	-0.12761402
192	0xbcd04325	-0.025422642
193	0x3d2c7480	0.04210329
194	0xbe4766c7	-0.194728
195	0xbea2e893	-0.31818065
196	0xbe2e30e0	-0.17010832
197	0xbe8bac6d	-0.27279988
198	0x3df8ae36	0.12142603
199	0xbe830e61	-0.25596908
200	0xbe4b80d3	-0.19873361
201	0xbd8004fe	-0.06250952
202	0xbf097d76	-0.53707063
203	0xbcaf2c6e	-0.02138349
204	0xbcdbb9ef	-0.026822058
205	0x3eeb862a	0.46000797
206	0xbc97ae71	-0.018515797
207	0xbf0730b7	-0.5280871
208	0xbe84616a	-0.2585557
209	0xbe0404aa	-0.12892404
210	0xbf017921	-0.50575453
211	0xba3cd7c7	-0.0007203784
212	0xbf01bebe	-0.50681674
213	0xbec97cc5	-0.39353004
214	0x3db8b3db	0.0901868
215	0xbe45573e	-0.19271562
216	0x3efa4d86	0.4888727
217	0xbe5031c5	-0.20331486
218	0xbfa01125	-1.2505232
219	0xbcc7aefc	-0.024375431
220	0xbd58b8eb	-0.052910727
221	0xbdf08276	-0.117436334
222	0x3d4e1b01	0.05031872
223	0x3d5b8499	0.05359325
224	0x3e4ea774	0.20181066
225	0x3e441af9	0.19150914
226	0x3e33b6fb	0.1755027
227	0x3e5ffa21	0.2187276
228	0xbdebc3c9	-0.115119524
229	0x3e97ba6b	0.29634413
230	0x3e840d68	0.25791478
231	0xbdddd2d3	-0.10831227
232	0x3e32ce8c	0.17461604
233	0x3e1742e0	0.14771605
234	0x3dad71fe	0.08469008
235	0x3e96b9d2	0.29438645
236	0xbd9e6913	-0.07734885
237	0xbd9e0fef	-0.07717883
238	0x3a9e4912	0.001207622
239	0x3e23ddf5	0.16002639
240	0x3e289423	0.1646276
241	0xbe928eef	-0.28624675
242	0xbdb15495	-0.08658711
243	0xbea11478	-0.3146093
244	0xbf7359b0	-0.9505873
245	0xbf67a7b5	-0.90490276
246	0xbef47882	-0.4774819
247	0xbe830d87	-0.25596258
248	0xbf5cfdd6	-0.8632482
249	0xbf71d199	-0.94460446
250	0xbf5c3eb4	-0.8603318
251	0x3e8d5ac6	0.27608317
252	0xbfe9c47d	-1.8263088
253	0x3e1b3df7	0.15160356
254	0xbd97936a	-0.07401164
255	0x3dfae652	0.12250961

net.0.bias f4 [128]
0	0x3fc4518d	1.5337387
1	0xc104ce6c	-8.300396
2	0xc0a3017a	-5.0939302
3	0x40371c11	2.861088
4	0x3ecf110e	0.404427
5	0xbe2b290a	-0.16714874
6	0x3f2927ad	0.66076165
7	0xbea95825	-0.3307506
8	0x3f8582c7	1.0430535
9	0xc103fc6d	-8.249127
10	0x3ef30069	0.4746125
11	0xc0b2e5b5	-5.5905404
12	0xc0dafc7e	-6.843322
13	0x3f5120f2	0.81690896
14	0x40ad7307	5.4202914
15	0xc0d86efc	-6.763548
16	0x3f73bbda	0.95208514
17	0xbfc89025	-1.566899
18	0x3f5da7a9	0.86583954
19	0x3f426a04	0.75943017
20	0xc0df290f	-6.973762
21	0x3f47e725	0.78087074
22	0xc08d63d4	-4.418436
23	0x400a29f2	2.1588101
24	0x40881982	4.2531137
25	0xc02ffcda	-2.7498078
26	0x4021f2bc	2.5304403
27	0x3f8bcbbb	1.0921549
28	0xc0a81ade	-5.2532797
29	0x3f763fcd	0.961911
30	0x3f85a0a8	1.0439653
31	0x3f82afba	1.0209877
32	0xc041fa99	-3.0309203
33	0xc0f981aa	-7.797078
34	0x3f9b24e7	1.2120637
35	0x3fc1d544	1.5143209
36	0x407ca936	3.9478278
37	0xc04eff54	-3.234334
38	0x3f190f98	0.5978942
39	0x3f9130ed	1.1343056
40	0x3f94eace	1.1634157
41	0x3fd50a83	1.6643833
42	0x3f460fb0	0.7736769
43	0x3f791981	0.9730454
44	0x3f106bd7	0.5641455
45	0xc0889ebb	-4.2693763
46	0x3ff5fbf1	1.9217511
47	0x3f914ecb	1.1352171
48	0x3f315886	0.692757
49	0x3f039441	0.5139809
50	0x3f95ab81	1.1692964
51	0x3fcaf8cb	1.5857176
52	0x3f5c067a	0.8594738
53	0x3f1e4672	0.6182624
54	0xc0470fe3	-3.1103446
55	0x3fe3b078	1.7788229
56	0x3e322714	0.1739772
57	0x3f80352b	1.0016226
58	0x4052ca9d	3.2936165
59	0x3ff616c5	1.9225699
60	0xc0793967	-3.8941286
61	0xbf2a13ae	-0.6643628
62	0xbf2e8bc8	-0.6818204
63	0x3f8ec463	1.1153682
64	0x3e6b8bb5	0.23002513
65	0x3f8e2986	1.1106422
66	0x3e724a77	0.23661219
67	0x3f9c38ce	1.2204835
68	0x3f6276cc	0.8846252
69	0x3f6c2db6	0.9225725
70	0x3f2b599c	0.6693361
71	0xbf2a50bb	-0.66529435
72	0x3f27466e	0.6534184
73	0xbfc06770	-1.5031567
74	0xc0d91c52	-6.784707
75	0x3fa97d84	1.3241429
76	0x401a54c7	2.4114244
77	0xc022c32e	-2.5431628
78	0xc0a01b01	-5.0032964
79	0xc01ed37e	-2.4816585
80	0x3f91f1d2	1.1401923
81	0x3fcf0bfd	1.6175534
82	0x3fb5d3f6	1.420531
83	0xbf419742	-0.75621426
84	0xc016c82e	-2.355968
85	0x3dd0a63e	0.10187958
86	0x3f8f0405	1.1173102
87	0xc053ccf1	-3.3093836
88	0x3fd98500	1.6993713
89	0x40943797	4.631786
90	0x3f90fcc2	1.1327136
91	0xc0bb77cd	-5.858374
92	0x3fc58946	1.5432518
93	0x3fbbb736	1.4665287
94	0x3f55cb8e	0.83513725
95	0x3effb46a	0.49942333
96	0x4109dbf4	8.6161995
97	0xbff927ee	-1.946531
98	0x3f91310e	1.1343095
99	0xc06928b1	-3.6431086
100	0xc00d2b55	-2.2057698
101	0x3f26ede4	0.6520674
102	0xc03abe20	-2.9178543
103	0xbe309f9a	-0.17248383
104	0x3f8a5c80	1.0809479
105	0x3ff3e4cf	1.9054202
106	0xbf6fbe7c	-0.9365003
107	0x3f0e0604	0.5547793
108	0x3f790108	0.972672
109	0xbfc7df02	-1.5614932
110	0x3d425567	0.047444727
111	0xc0920ee7	-4.564319
112	0x4037a144	2.8692179
113	0xbf755ba5	-0.95842963
114	0x3f9b2e1a	1.2123444
115	0x3f6ef293	0.9333889
116	0x40680e58	3.6258755
117	0x3f7895d5	0.97103626
118	0xc03b2d5f	-2.9246442
119	0xc074b12a	-3.8233132
120	0xc0be07db	-5.938459
121	0x3f91df9c	1.1396365
122	0xc0bc196d	-5.8781037
123	0x3f00eb72	0.5035926
124	0xbf8772d9	-1.0581924
125	0x3f486cc0	0.7829094
126	0x3f9118b9	1.133567
127	0x4023543c	2.5520163

net.2.weight f4 [128, 128]
0	0xbdb00448	-0.085945666
1	0x3e001b74	0.12510473
2	0x3eb69a1c	0.3566445
3	0x3a94a448	0.0011340464
4	0x3bcfa39c	0.0063366424
5	0x3cd60a3a	0.026127923
6	0xbe5cfeb7	-0.21581541
7	0xba340e19	-0.0006868556
8	0xbd3f5577	-0.046712365
9	0x3c16ce40	0.009204447
10	0xbde70236	-0.112797186
11	0xbe004fb9	-0.12530412
12	0x3ef590c9	0.47962025
13	0xbc7a5869	-0.015279868
14	0xbd51706c	-0.051132604
15	0xbdce4b0b	-0.10072907
16	0x3c983801	0.018581392
17	0xbe8d4592	-0.2759214
18	0xbdc7a254	-0.097477585
19	0xbd1c430b	-0.038149875
20	0xbdd81fe4	-0.10552958
21	0xbcd54cf1	-0.026037665
22	0x3c1ff751	0.009763555
23	0x3c1b8556	0.009492239
24	0xbcf37137	-0.029717071
25	0x3e04fd3c	0.12987226
26	0xbcb4f8dc	-0.022091322
27	0x3cb63dee	0.022246327
28	0xbd02ac8c	-0.031902835
29	0xbc32b3a9	-0.010907092
30	0xbd81c540	-0.063364506
31	0x3d681238	0.056658
32	0xbddb5cb5	-0.10711042
33	0xbdf57aec	-0.11986336
34	0xbde52e68	-0.11190492
35	0xbd0191cd	-0.031633187
36	0xbdfcbafa	-0.123403504
37	0x3f51df70	0.81981564
38	0xbddf5cba	-0.10906358
39	0xbe1924a9	-0.14955391
40	0xbdef2f7d	-0.116789795
41	0xbde7a77f	-0.11311244
42	0xbc4b184a	-0.012395928
43	0xbdeeaa51	-0.11653579
44	0x3c919052	0.017769013
45	0x3e9594ff	0.29215237
46	0xbdb310a9	-0.08743412
47	0xbd36b217	-0.044603433
48	0xbbce0725	-0.006287473
49	0x3c4cbab5	0.012495686
50	0xbe190752	-0.14944199
51	0xbdb2afc2	-0.087249294
52	0xbd624d20	-0.055249333
53	0x3cac4fe7	0.021034194
54	0x3c144874	0.009050477
55	0xbd5412b7	-0.05177566
56	0xbdf6b7e9	-0.12046797
57	0xbf03e07a	-0.515144
58	0xbd88a5f6	-0.066722795
59	0xbdf4055e	-0.11915086
60	0xbe454026	-0.19262752
61	0xbf118abf	-0.56852335
62	0x3b1b0a82	0.0023657386
63	0xbd85fbde	-0.065421805
64	0xbe10f56a	-0.14156118
65	0xbda872ed	-0.08225045
66	0xbdb7d8af	-0.08976876
67	0xbdd947cb	-0.106093965
68	0xbd82b62c	-0.06382403
69	0xbd5e541f	-0.054279443
70	0xbdf45038	-0.11929363
71	0xbcc40f8a	-0.02393319
72	0x3c00315d	0.007824269
73	0xbecd277b	-0.40069184
74	0xbd6eaca6	-0.05827012
75	0xbdc6a471	-0.096993335
76	0xbdc68fc1	-0.09695388
77	0xbcf97407	-0.030450834
78	0x3e3880b0	0.1801784
79	0xbc1a1b2c	-0.009405892
80	0xbddcaf74	-0.107756525
81	0xbe358b2b	-0.1772887
82	0xbe08823f	-0.13330935
83	0xbdb98357	-0.09058254
84	0x3d41ae06	0.047285102
85	0xbe02f6a7	-0.12789403
86	0xbd239b21	-0.039942864
87	0xbdaad31c	-0.08341047
88	0xbdfeeff9	-0.12448115
89	0xbd597fd2	-0.053100415
90	0x3be72588	0.0070540346
91	0xbdb1dc3f	-0.08684587
92	0xbe0be2fc	-0.13660806
93	0xbe0ee20e	-0.1395342
94	0x3c814cd9	0.015783714
95	0xbdbeb26c	-0.09311375
96	0xbe4045e6	-0.18776664
97	0xbd87ede9	-0.06637175
98	0xbdb51531	-0.088419326
99	0xbc90f39c	-0.017694287
100	0xbc208c41	-0.009799064
101	0xbd9d00e7	-0.07666188
102	0x3e3ea17c	0.18616289
103	0xbd909270	-0.07059181
104	0xbde87880	-0.113511086
105	0xbdb16ec6	-0.086637065
106	0xbdd9c25a	-0.10632773
107	0xbcdc0e23	-0.02686221
108	0xbba2dbaf	-0.004970036
109	0xbe0c05ff	-0.13674162
110	0x3df7cd7d	0.12099741
111	0xbed53533	-0.4164215
112	0xbe10b28c	-0.1413061
113	0xbe0618f6	-0.1309546
114	0x3beb0e9a	0.0071733715
115	0xbcbbd325	-0.02292783
116	0xbdb28874	-0.087174326
117	0xbdf05f5e	-0.1173694
118	0xbe3893b4	-0.18025094
119	0x3e813c61	0.25241378
120	0x3e1325d6	0.14369902
121	0xbd04b26c	-0.03239672
122	0x3e2df0f6	0.1698645
123	0xbdd25c75	-0.10271541
124	0xbda3957f	-0.079874985
125	0xbd9670e1	-0.07345749
126	0xbdc717cb	-0.09721335
127	0xbdf579ff	-0.119861595
128	0xbe336450	-0.17518735
129	0x3ec35a01	0.38154605
130	0x3c7c7a11	0.015409962
131	0xbee34603	-0.44389352
132	0xbe157b5b	-0.14597838
133	0x3db26ad1	0.0871178
134	0xbdbb4ada	-0.09145136
135	0xbeb0ac67	-0.34506533
136	0xbe9feea3	-0.31236753
137	0x3d28dd83	0.041226875
138	0xbe942cee	-0.2894053
139	0xbe1c60cb	-0.15271299
140	0x3cf2dde0	0.029646814
141	0xbe0ad00f	-0.1355593
142	0xbe6c76db	-0.23092215
143	0xbe9029a2	-0.28156763
144	0xbe1feff3	-0.15618877
145	0xbe1551ef	-0.14582036
146	0xbdf6465c	-0.12025139
147	0xbe4f8b9d	-0.20268102
148	0x3d12fc26	0.035885
149	0xbe36559c	-0.17806095
150	0xbe1a6f09	-0.15081419
151	0xbe49865d	-0.19680162
152	0xbd3d2106	-0.04617407
153	0x3e5a24fb	0.2130317
154	0xbeaaa807	-0.3333132
155	0xbe1e395c	-0.15451568
156	0x3e8ea97e	0.27863687
157	0xbe48974a	-0.19588962
158	0xbe005514	-0.12532455
159	0x3e1c9fac	0.15295285
160	0xbd7cb60e	-0.06169706
161	0xbd8a0e12	-0.06740965
162	0xbcf16426	-0.0294667
163	0xbdfd65f8	-0.123729646
164	0xbe86d0e4	-0.26331246
165	0x3ef2da4f	0.4743218
166	0xbe5cd76b	-0.2156655
167	0xbe79211f	-0.24329041
168	0xbe0905b9	-0.1338109
169	0xbe98a5b1	-0.29813913
170	0xbd2d6405	-0.042331714
171	0xbe0994e8	-0.1343571
172	0xbe28528c	-0.16437739
173	0x3daaad7e	0.08333872
174	0xbe4ae5e4	-0.19814259
175	0xbd91c915	-0.071184315
176	0xbe72ed89	-0.23723425
177	0xbe42f160	-0.1903739
178	0xbe182e39	-0.14861383
179	0xbe6d51d0	-0.2317574
180	0xbd8d2ef7	-0.068937235
181	0xbe1bb6cd	-0.15206452
182	0xbe14986e	-0.14511272
183	0xbeb48084	-0.352543
184	0x3eb949b4	0.36189044
185	0xbe4faf96	-0.20281824
186	0x3e45277e	0.19253346
187	0xbd21eeae	-0.039534263
188	0xbf261aa1	-0.6488438
189	0xbd4e8754	-0.050422028
190	0xbe2812b2	-0.16413382
191	0xbdba494d	-0.09096012
192	0xbd1dfa0a	-0.038568534
193	0xbe5d23c9	-0.21595682
194	0xbe0acb69	-0.13554157
195	0xbe9838fb	-0.29730973
196	0xbe00c900	-0.12576675
197	0xbce47637	-0.0278884
198	0xbe875b60	-0.264369
199	0xbe6868fe	-0.22696301
200	0xbe4d9409	-0.20076002
201	0xbdb0fb68	-0.08641702
202	0x3c6ab47e	0.014325259
203	0xbe090ed4	-0.13384563
204	0xbe9b7b71	-0.30367616
205	0xbe699e0e	-0.228142
206	0x3e2b9c3e	0.1675882
207	0xbecc5451	-0.39908078
208	0xbe13ea3b	-0.1444482
209	0xbe964d3b	-0.29355797
210	0x3e57994f	0.21054576
211	0xbe1c0306	-0.15235528
212	0x3db8446f	0.08997428
213	0xbd833af6	-0.0640773
214	0xbe7d30b8	-0.24725616
215	0xbe2ed46e	-0.17073223
216	0xbe2da2db	-0.16956656
217	0xbe263532	-0.1623123
218	0x3eb5e6f9	0.3552778
219	0xbc831289	-0.01600005
220	0xbeee00c1	-0.4648495
221	0xbe61b67d	-0.2204227
222	0xbdeeae38	-0.11654323
223	0xbe1c8537	-0.15285192
224	0xbe5b8d22	-0.21440557
225	0xbe8924f3	-0.26786003
226	0xbebc0d6d	-0.36728993
227	0xbe28df34	-0.16491395
228	0xbea0664f	-0.31328055
229	0xbea55d17	-0.32297584
230	0xbe26c154	-0.16284686
231	0xbdf8624e	-0.12128125
232	0xbea3e679	-0.32011774
233	0xbe79df09	-0.24401487
234	0xbea0c599	-0.31400755
235	0xbdb44923	-0.08803012
236	0xbebcb3be	-0.36855882
237	0xbe4f4a5b	-0.20243208
238	0xbe4f990b	-0.20273225
239	0x3ca46032	0.0200654
240	0xbe9662a3	-0.2937213
241	0xbe8bdcec	-0.27316988
242	0xbe3ab525	-0.18233164
243	0xbea63b69	-0.324672
244	0x3a0ea409	0.0005441313
245	0xbe8aeab4	-0.2713219
246	0xbe80242c	-0.25027597
247	0x3ea201fb	0.31642136
248	0x3e977b9c	0.29586494
249	0x3dbe700b	0.09298714
250	0x3eb42f8a	0.3519252
251	0xbddf5315	-0.109045185
252	0xbeccfb0d	-0.40035287
253	0xbdb8cac7	-0.09023052
254	0xbe5a1337	-0.21296392
255	0xbec10607	-0.3769991

net.2.bias f4 [128]
0	0xbe6a941c	-0.22908062
1	0xbf0f893c	-0.5606878
2	0xbd97bee8	-0.07409459
3	0xbdbece61	-0.093167074
4	0xbf0f70a1	-0.56031233
5	0x3f33fa5c	0.70303893
6	0x3fcd1884	1.6023107
7	0xbe84e09d	-0.25952616
8	0xbe3cfddc	-0.18456215
9	0xbfe95fc6	-1.8232353
10	0x3fbed443	1.4908527
11	0xbea804ec	-0.32816255
12	0x3f3ca374	0.7368691
13	0x3ecacce8	0.39609456
14	0x3f4bfdfd	0.7968443
15	0xbe803aa9	-0.25044754
16	0x3f8491f1	1.0357038
17	0x40059adc	2.0875769
18	0xbe399ff7	-0.18127428
19	0xbebaf36a	-0.36513835
20	0xbdc6f29a	-0.09714241
21	0x3ea69857	0.325381
22	0x3f6b10c6	0.9182247
23	0x3f629ac9	0.88517433
24	0x3f7ad583	0.97982043
25	0xbe105138	-0.14093482
26	0x3f81c13e	1.0137098
27	0xbeb9e1b9	-0.36305025
28	0xbeb3445c	-0.35013092
29	0x3db38e0d	0.087673284
30	0x3cafdb14	0.02146677
31	0x3f41b4cb	0.75666493
32	0x3f061cf9	0.5238796
33	0xbdde5973	-0.10856905
34	0xbe25a5e6	-0.16176566
35	0x3f393dde	0.72360027
36	0x3f52b634	0.8230927
37	0xbe4797c4	-0.19491488
38	0x3f2e0a05	0.6798404
39	0xbea4a47f	-0.3215675
40	0x3f39907e	0.724861
41	0xbd93bb9c	-0.07213518
42	0x3fa597c7	1.2936944
43	0xbdb4fc60	-0.08837199
44	0x3f489b37	0.7836184
45	0xbf864650	-1.0490208
46	0xbdb63646	-0.088970706
47	0x3f814c6a	1.0101445
48	0xbead86b6	-0.3389184
49	0x3ff7b46b	1.9351934
50	0x3f79b38d	0.975396
51	0xbe23dc56	-0.1600202
52	0xbdeee81a	-0.116653636
53	0xbdfc51d2	-0.123202935
54	0x3fb0a8b1	1.380148
55	0xbe1b64a7	-0.15175115
56	0x3db09e0b	0.08623894
57	0x3fa77857	1.30836
58	0x3f39ef67	0.72630924
59	0x402c68f0	2.6939049
60	0xbea75bc6	-0.32687205
61	0x400b6454	2.1779985
62	0xbeb40b7c	-0.35165012
63	0xbe2ced5b	-0.16887419
64	0x3d326fd4	0.04356368
65	0xbe396ed5	-0.18108685
66	0x3f64bda3	0.8935186
67	0xbe8b556b	-0.27213606
68	0xbe98edae	-0.29868835
69	0x3f4dfac6	0.80460775
70	0x3f605a50	0.87637806
71	0x3f57246c	0.8403995
72	0x3f3eb50c	0.74495006
73	0x3f5f03f3	0.871154
74	0x3fb34582	1.4005587
75	0xbd877368	-0.06613809
76	0xbf4998f0	-0.7874899
77	0xbeb3a7f4	-0.35089076
78	0xbeeba159	-0.46021536
79	0x3f6e3b11	0.9305888
80	0x400de7b2	2.2172666
81	0x3f97a412	1.1846945
82	0xbf0fd5e5	-0.5618575
83	0xc114f051	-9.308671
84	0x404c7813	3.1948287
85	0xbe0607f5	-0.13088973
86	0x3f7c5780	0.98571014
87	0xbe68697f	-0.22696494
88	0x3f29c5a2	0.6631719
89	0x3f3fbbe1	0.74896055
90	0x3f4a1357	0.7893576
91	0xbf8b741d	-1.089481
92	0x3f9e7056	1.2378032
93	0x3f538c44	0.82635903
94	0x3f186394	0.59526944
95	0xbd6803a4	-0.056644097
96	0x3fab0baf	1.336294
97	0xbd9825ad	-0.07429061
98	0x3f6734a6	0.9031471
99	0xbe4a35e5	-0.19747122
100	0x3fc88a85	1.5667273
101	0xbeb523f3	-0.3537899
102	0x3f6f1b75	0.9340127
103	0x3ec47043	0.383669
104	0x3fc7cb58	1.560893
105	0xbe803de7	-0.25047228
106	0xbdedadb0	-0.11605394
107	0xbe469592	-0.19392994
108	0xbe2c4474	-0.16822988
109	0x3f924637	1.1427678
110	0x3f159290	0.5842676
111	0x3e56b301	0.20966722
112	0xbeb37b29	-0.350549
113	0xbe52efb7	-0.20599256
114	0xbe096e9a	-0.13421097
115	0xbe534d42	-0.2063494
116	0x3f8bc3a0	1.0919075
117	0x3f9812e1	1.1880761
118	0x3f60977f	0.87731165
119	0x40b3ff18	5.6248894
120	0x3f0c7cf7	0.5487818
121	0x3f78d513	0.97200125
122	0x3ff3d0fc	1.9048152
123	0x3c5b25f7	0.013375751
124	0xbe1bfe64	-0.15233761
125	0x3faec9b3	1.3655304
126	0xbea1117b	-0.3145865
127	0x3f43bcde	0.76460063

net.4.weight f4 [38, 128]
0	0xbcc43822	-0.023952547
1	0x3d726333	0.059176635
2	0x3d86d13c	0.06582877
3	0x3c0f3ed5	0.008743008
4	0x3e33db86	0.1756421
5	0x3d7164dd	0.05893408
6	0x3ebc386a	0.3676179
7	0x3d833730	0.064070106
8	0x3cbb4e37	0.022864444
9	0x3f02c3a7	0.5107979
10	0x3d9d72b2	0.07687892
11	0xbcf15657	-0.029460115
12	0x3d6d69fc	0.057962403
13	0xbbf90ea1	-0.007600621
14	0xbc3f5e0c	-0.011680137
15	0x3d258d3e	0.040417902
16	0x3e1c64b4	0.1527279
17	0xbe1b667f	-0.15175818
18	0xbd81609b	-0.06317254
19	0x3c2f6c1a	0.010706926
20	0x3d81cd2d	0.06337962
21	0xbe3e0445	-0.18556316
22	0x3d24e9d0	0.040262043
23	0x3d8d3410	0.06894696
24	0x3d7ff23a	0.062486865
25	0x3b89c1d5	0.004204015
26	0x3e23f40e	0.16011068
27	0xbd0eced3	-0.03486521
28	0xbdb9a28a	-0.09064205
29	0xbefaac3a	-0.48959523
30	0xbd57d681	-0.0526948
31	0x3e0a3799	0.13497771
32	0x3e13de40	0.1444025
33	0xbd1b7e78	-0.037962407
34	0xbd6f72e3	-0.058459174
35	0x3cf62b13	0.030049836
36	0x3d862c90	0.06551468
37	0xbd742630	-0.05960673
38	0x3d3aa225	0.04556479
39	0xbdedb88e	-0.11607467
40	0x3e470800	0.19436646
41	0xbd2b336b	-0.041797083
42	0x3f2bd22a	0.6711756
43	0xbcaa6232	-0.020798776
44	0x3e072325	0.13197
45	0xbf0a6787	-0.5406422
46	0xbd820e01	-0.06350327
47	0xbf1d475c	-0.6143701
48	0xbd732f6d	-0.0593714
49	0x3df09a95	0.11748234
50	0x3d5416b2	0.051779456
51	0x3add33ae	0.0016876364
52	0xbd8718f3	-0.065965556
53	0x3d62f69d	0.05541097
54	0xbda53c1d	-0.08068106
55	0x3d325339	0.0435364
56	0x3cef8e3e	0.029242631
57	0xbe8121a5	-0.2522098
58	0x3f950c48	1.1644373
59	0x3d1df2fc	0.038561806
60	0x3c16631e	0.009178905
61	0xbd2bbec4	-0.041929975
62	0x3bce14f6	0.00628912
63	0xbd845fc9	-0.06463582
64	0x3ce12e29	0.027487831
65	0xbba54eb5	-0.005044783
66	0xbca3bcf9	-0.01998757
67	0x3d841ffb	0.06451412
68	0xbadab856	-0.0016687016
69	0x3e13c15d	0.14429231
70	0xbcb8a193	-0.022537982
71	0xbbf2a8df	-0.007405385
72	0x3ca1c16b	0.01974555
73	0xbdd7def8	-0.10540575
74	0x3e0926c4	0.13393694
75	0x3cc012c4	0.023446448
76	0x3dd00d21	0.10158754
77	0xbd218ef0	-0.039442956
78	0xbd4bec3e	-0.049785845
79	0x3d7de826	0.061988972
80	0xba0cd288	-0.0005371948
81	0xbd112a19	-0.035440538
82	0xbd3b1c40	-0.04568124
83	0xbfa98652	-1.3244116
84	0xbf0a2938	-0.53969145
85	0xbd95fcce	-0.07323609
86	0x3de64117	0.11242884
87	0x3d5fe39f	0.054660436
88	0x3df8e2c8	0.1215263
89	0x3d1b1bf5	0.03786846
90	0x3dced4c8	0.100991786
91	0x3f0b6158	0.5444541
92	0x3db26cca	0.08712156
93	0x3e03f1ca	0.12885204
94	0x3d0ae49c	0.033909425
95	0xbd47746d	-0.048695017
96	0x3d637d68	0.05553952
97	0xbd8d78bb	-0.06907793
98	0x3e305014	0.17218047
99	0xbd7c51c8	-0.06160143
100	0x3dc4dd5c	0.096125335
101	0xbc5bbbab	-0.013411443
102	0x3dcf0d38	0.10109943
103	0x3e80d306	0.25160998
104	0xbe43d89d	-0.191256
105	0xbc0187e8	-0.007905938
106	0x3da01bb6	0.078177854
107	0xbd230718	-0.039801687
108	0xbd860803	-0.06544497
109	0xbcaa485f	-0.020786462
110	0x3d44b0d7	0.04802021
111	0xbd5d0a16	-0.053964697
112	0xbe265867	-0.1624466
113	0xbd4184e2	-0.047245868
114	0xbd8fe368	-0.07025796
115	0x3d08bc91	0.033382956
116	0x3d97da95	0.07414738
117	0x3cf57f37	0.029967887
118	0x3dc14b16	0.0943815
119	0xbf264ec6	-0.6496395
120	0x3ed06ce3	0.40708074
121	0x3dfd2aef	0.123617046
122	0x3e020bfa	0.12699881
123	0x3dc9ecd8	0.098596275
124	0x3cdae0b5	0.026718477
125	0x3d66dbe5	0.05636205
126	0xbc80fc50	-0.015745312
127	0xba976d63	-0.0011552986
128	0xbccd714b	-0.025078436
129	0xbd494e0a	-0.04914669
130	0x3d8db188	0.06918627
131	0xbe0a0485	-0.13478287
132	0x3d9a310f	0.075288884
133	0x3dd7c34e	0.10535298
134	0x3e96d656	0.294604
135	0xbca9d198	-0.020729825
136	0x3c0aecba	0.008479292
137	0x3edc1e48	0.42991853
138	0x3dbdbedb	0.092649184
139	0xbdbe940a	-0.0930558
140	0x3dbd1c11	0.09233869
141	0xbe12c456	-0.14332709
142	0x3a9841b1	0.0011616257
143	0xbe1e1fe0	-0.15441847
144	0x3dcf92d0	0.10135424
145	0xbdd6dc73	-0.10491266
146	0x3d5acf54	0.05342038
147	0x3c96c092	0.018402372
148	0xbc9b7ae3	-0.018979495
149	0x3bd6ed83	0.0065590753
150	0x3d845e39	0.06463284
151	0x3df78474	0.1208581
152	0x3e286f5f	0.16448735
153	0xbd87f04d	-0.066376306
154	0x3e0edb87	0.1395093
155	0x3b8ef474	0.004362637
156	0xbdacca98	-0.08437079
157	0xbf0a230e	-0.5395974
158	0xbdecbb69	-0.11559183
159	0x3d40b495	0.047047216
160	0x3e0f2a02	0.13980868
161	0x3dedd184	0.116122276
162	0x3d22ea5c	0.039774284
163	0x3d44989d	0.047997106
164	0x3e00f443	0.12593178
165	0x3d11ab9e	0.035564058
166	0x3de03fe7	0.109496884
167	0xbd833a99	-0.06407661
168	0x3d7c8dbb	0.061658602
169	0x3dff9396	0.12479322
170	0x3f35e850	0.71057606
171	0x3d032677	0.032019105
172	0x3e062b27	0.13102399
173	0xbf08b159	-0.5339561
174	0x3dfa0609	0.12208182
175	0xbc9b5e9f	-0.018966017
176	0xbb6d39de	-0.0036197822
177	0x3daaed4b	0.08346041
178	0x3d88f52c	0.06687388
179	0xbd9fc6ba	-0.07801576
180	0x3cf34fa2	0.029701058
181	0x3da381ef	0.07983767
182	0x3da4cca4	0.080468446
183	0xbd8879ff	-0.06663894
184	0x3cdaed5a	0.026724506
185	0xbe5672a3	-0.20942168
186	0x3fa74c74	1.3070207
187	0x3d6d696b	0.057961863
188	0xbd393703	-0.04521848
189	0xbcd825f1	-0.02638528
190	0x3db49115	0.08816735
191	0x3ddb1069	0.10696489
192	0xbd714b30	-0.058909595
193	0x3d54dd25	0.051968712
194	0x3d560147	0.052247312
195	0xbd607f93	-0.054809164
196	0xbd988514	-0.07447258
197	0x3c817833	0.015804386
198	0x3dd3ddf9	0.10345072
199	0x3d8f999e	0.07011722
200	0x3df9d580	0.12198925
201	0xbd7da142	-0.061921366
202	0x3cc6841f	0.024232922
203	0x3d12029f	0.03564703
204	0x3d86866d	0.065686084
205	0x3c12924d	0.008946014
206	0xbd44528a	-0.047930278
207	0x3d3b4577	0.045720544
208	0x3dd9d262	0.106358305
209	0x3c112c8d	0.008860719
210	0xbc5f23d1	-0.013619379
211	0xbfbd2927	-1.4778184
212	0xbf1fe5ac	-0.62459826
213	0x3b647299	0.0034858345
214	0x3d4af007	0.049545314
215	0xbd0e2e10	-0.034711897
216	0x3cb2b341	0.02181399
217	0x3dd13621	0.102154024
218	0x3ddebd29	0.10875923
219	0x3ee7196c	0.45136583
220	0x3d8b95de	0.06815694
221	0x3d9b7773	0.075911425
222	0x3c88b73b	0.016688934
223	0x3db74694	0.089490086
224	0x3ce2ebb9	0.027700292
225	0x3ba7c676	0.005120094
226	0x3d92c536	0.07166521
227	0x3d3ce962	0.04612101
228	0x3df0dfd3	0.11761441
229	0xbdc8f523	-0.09812381
230	0x3d2dea46	0.04245975
231	0x3e68604a	0.22692981
232	0xbdbb7815	-0.09153763
233	0xbcf9929a	-0.030465413
234	0x3d409b45	0.047023077
235	0xbd385aad	-0.04500835
236	0x3e1400a5	0.14453371
237	0x3cfba478	0.030718073
238	0x3e0dbbe9	0.13841213
239	0xbc27fa98	-0.010252617
240	0xbd97dc79	-0.07415099
241	0x3de4c0c6	0.11169581
242	0x3d134bb1	0.035960857
243	0x3db2e004	0.08734134
244	0x3dba335c	0.09091827
245	0x3ce1a48a	0.027544279
246	0x3dc5f01b	0.09664937
247	0xbf3e7ec6	-0.7441219
248	0x3ea79fde	0.32739156
249	0x3d19d0ec	0.03755276
250	0x3ccae381	0.024766685
251	0x3c75ffd6	0.015014609
252	0xbe329a59	-0.17441691
253	0x3d08c887	0.033394363
254	0xbb458c2c	-0.0030143363
255	0x3ddcd0a7	0.10781985

net.4.bias f4 [38]
0	0x3ccf0808	0.025272384
1	0xbd1859c4	-0.037194982
2	0x3d37b7dc	0.044853076
3	0x3da77cfe	0.08178137
4	0x3db06aaa	0.086140946
5	0x3dfe9510	0.12430775
6	0x3d20e93c	0.03928493
7	0x3c0e35cc	0.008679818
8	0xbc5294bf	-0.012852847
9	0x3e7a599d	0.24448247
10	0x3dcfe8f0	0.10151851
11	0x3dc4e559	0.09614057
12	0x3e3e48b9	0.18582429
13	0x3e2c8d07	0.16850673
14	0x3e69cb62	0.2283149
15	0x3e2c84ee	0.16847584
16	0x3e44c45a	0.19215527
17	0x3e1c941c	0.15290874
18	0x3e125ef5	0.14294036
19	0x3e27c4d4	0.16383678
20	0x3e8b2e65	0.27183834
21	0x3e9f5bc0	0.31124687
22	0x3e9c1e88	0.30492043
23	0x3e96e99a	0.294751
24	0x3f04aee6	0.51829374
25	0x3ee1c43f	0.44095036
26	0x3efa46b3	0.48882064
27	0x3ee1507a	0.4400671
28	0x3efa0d8b	0.48838457
29	0x3f068363	0.5254423
30	0x3f4d82f4	0.80277944
31	0x3f1f4acf	0.62223524
32	0x3f2e2d85	0.6803821
33	0x3f49f847	0.78894466
34	0x3fa04a99	1.2522765
35	0x3f8272e6	1.0191314
36	0x3feb0a44	1.8362508
37	0x3ff0c2d5	1.8809458
