quantile_forecasters/one_warehouse_short.pt (torch, 97638 bytes, 6 tensors)

net.0.weight f4 [128, 17]
000000 0b c3 36 3c 69 7f 30 be 80 51 15 3d 9a 4c 11 3e
       0.0111549 -0.17236103 0.036454678 0.14189377
000010 25 85 dc 3d ab 24 0d be 13 fc e2 3d 6a f7 0c 3d
       0.10767583 -0.13783519 0.110832356 0.03441564
000020 cd b5 79 bd ff 05 13 be a2 de 3c be dd c9 0f 3d
       -0.060964394 -0.14357756 -0.18444303 0.03510462
000030 86 6b bd 3d 7d 68 df 3d 0b 2c f1 3c f8 ba 33 bd
       0.09249024 0.109086014 0.029439947 -0.04387948
000040 9b d3 75 3f 2b 11 87 be db aa 90 be 6e 8a a6 bb
       0.9602601 -0.26380286 -0.28255352 -0.00508242
000050 d1 d9 6b be a4 2c 78 3d 7e 01 68 3e 42 c7 a3 3e
       -0.23032309 0.060589448 0.22656819 0.3198796
000060 7b 6f da 3e 27 35 4a 3e 4a 8a a1 be 67 d5 75 3e
       0.42663178 0.19746839 -0.3155082 0.24007188
000070 2d a1 d1 bd 9e f1 d6 bd 0f db 1d be 0d c4 96 be
       -0.1023582 -0.104953036 -0.15415595 -0.2944645
000080 4a e6 78 bd 5b f2 b4 bd 7c c3 70 3e 8f d2 85 be
       -0.060766496 -0.08835288 0.23512071 -0.26137206
000090 14 d6 22 bb c2 90 62 bd 98 e4 46 3e 90 40 fe bd
       -0.0024846839 -0.055313833 0.19423139 -0.12414658
0000a0 70 9b ab bc b4 a3 1c 3d 04 5e ef bb aa 2e 81 3e
       -0.020948142 0.038242057 -0.0073049087 0.25230914
0000b0 5b 47 5a be 3a cc b0 3c 90 8f 0e 3e d1 8e 8d 3d
       -0.21316282 0.021581758 0.13921952 0.06912006
0000c0 16 fa 1f 3e d5 b7 4a 3e cc 81 4c 3e 63 69 4a be
       0.15622744 0.19796689 0.19971389 -0.19766764
0000d0 2c 96 e3 3e f9 f0 9b be 89 34 16 3d 28 bc 2b bc
       0.4445051 -0.30457285 0.036671195 -0.010481872
0000e0 b5 01 bb 3d 7d f4 30 3e dd 4b c7 3d 81 32 56 bd
       0.09131185 0.17280765 0.09731267 -0.052294258
0000f0 d1 5a e7 3c 83 8c ab be ae bd 59 be e1 33 31 be
       0.028241547 -0.3350564 -0.21263763 -0.17304946
000100 33 b9 09 bf ab e6 62 be 81 2a 31 bc 78 67 8c bd
       -0.53798217 -0.22158305 -0.010813356 -0.068556726
000110 fa d6 d2 3c d8 0b d1 bb be f2 2b bc da e1 18 bd
       0.025737274 -0.0063795857 -0.010494886 -0.037324764
000120 0c f5 3f 3e e0 d5 5b 3e a4 30 d1 3b 14 5f 67 3e
       0.18745822 0.21468306 0.0063839722 0.22594863
000130 cf b2 9c 3d 87 df 0d 3e bc 7f d4 3d 57 3f 60 bb
       0.076512925 0.138548 0.10375926 -0.003421744
000140 0c f7 0b 3e e4 70 e2 3c 5f 32 63 be 9d 83 30 3e
       0.1366846 0.027641721 -0.22187184 0.17237706
000150 ee e1 ab 3c 17 36 8d bf aa 3d 56 bf 85 43 05 bf
       0.020981755 -1.1032132 -0.8368784 -0.5205615
000160 eb e5 ff be a3 d4 62 bf 86 f0 8d be 11 14 0a bf
       -0.499801 -0.8860571 -0.27722567 -0.5393687
000170 b3 76 45 be b5 66 1b be ea 82 8b 3c 9f 35 17 3d
       -0.19283561 -0.15175898 0.017030198 0.03691637
000180 1c 40 11 bc 64 0d 15 3e c5 b8 39 3d 29 e6 9a 3d
       -0.0088653825 0.1455589 0.045342226 0.07563431
000190 c0 68 11 3d 2b da 02 3e 62 bb cd 3d b1 93 3f be
       0.035500288 0.12778537 0.10045506 -0.18708684
0001a0 16 de 23 be 67 7f 0f 3b 23 3e 2a be 98 a2 5e be
       -0.16002688 0.0021896006 -0.16625266 -0.21741712
0001b0 e0 9d d0 bd eb 14 47 3e d1 24 67 bd 7f fc 44 be
       -0.10186362 0.19441573 -0.056431595 -0.19236945
0001c0 be 1e 6c 3e 2f 86 05 3e a7 36 d9 3e bb 8d 02 be
       0.23058602 0.13039468 0.4242451 -0.12749378
0001d0 91 bd 7f 3d 76 4e a3 bd 77 39 a1 be b2 b8 b8 be
       0.062436644 -0.079739496 -0.31489155 -0.3607841
0001e0 71 dd 8c be 50 cf a8 3e a9 c6 dc bd 02 c2 1a be
       -0.27512696 0.32970667 -0.10780079 -0.1511307
0001f0 c3 96 33 3c f3 a6 5e 3d e3 a1 b5 be 6d 75 8e 3d
       0.010961237 0.054358434 -0.35475072 0.06955991
000200 41 09 93 3e b3 df bd bd 0d c7 d0 be 1c b0 6f 3e
       0.28717998 -0.09271183 -0.40776864 0.23407024
000210 fb d7 91 be d4 ec 99 3c c6 30 09 bd 16 a6 97 bb
       -0.28485093 0.018789686 -0.03349378 -0.0046279533
000220 4d a8 94 be 7d a8 fa be b0 18 e4 bd 91 14 6d 3d
       -0.29034653 -0.4895667 -0.11137521 0.05788094
000230 aa 34 e9 3d b9 c4 a8 3c 1a f3 83 3e 0e d9 dc 3d
       0.11386998 0.020601617 0.2577141 0.107835874
000240 f2 27 a1 3e af c9 9a 3d 77 e4 78 bd be 16 a0 bc
       0.31475788 0.07557999 -0.060764756 -0.019542094
000250 77 75 4e 3e ab e3 e5 be 3f 17 9f 3d 8e 93 e7 3d
       0.20161997 -0.4490026 0.07768106 0.11307441
000260 f4 cc 20 3d 95 11 5d 3e 38 31 01 3e a7 d6 54 3c
       0.03925796 0.21588738 0.12616432 0.01299063
000270 e2 1f f4 be 14 0f 8f bf d7 4a e9 be ea be 58 bf
       -0.47680575 -1.1176476 -0.4556491 -0.8466631
000280 32 a5 52 be ed 47 51 be 8c e1 98 be 1f 69 cc be
       -0.2057083 -0.20437594 -0.2985958 -0.3992395
000290 b9 a5 dc be 6b 35 ee be 4d 67 49 bf 87 97 13 c0
       -0.43095186 -0.4652513 -0.7867325 -2.3061235
0002a0 a3 98 95 3d da 43 44 be 9e ab e7 3c b5 8f 95 be
       0.07304504 -0.19166508 0.028280076 -0.29211202
0002b0 59 ad 59 be f4 e4 40 be 8d b0 1b 3e 27 54 10 3e
       -0.21257533 -0.18837339 0.15204068 0.14094602
0002c0 90 eb 85 3d d2 17 5b be 8e fc 14 3e d6 81 07 3e
       0.065390706 -0.21395805 0.14549467 0.13233122
0002d0 3b 1e 33 3e a4 9a 87 3d 09 c5 8a 3d 9d de d6 bd
       0.17492001 0.06621292 0.06775863 -0.10491679
0002e0 b2 08 71 3e 4b 40 27 3d b8 1a 03 3b e3 78 0c be
       0.23538473 0.0408328 0.002000494 -0.1371799
0002f0 41 72 c1 be dc 8a c5 bc c9 41 0f 3c c0 6c 8a bd
       -0.3778248 -0.024114065 0.008743712 -0.06759024
000300 e0 e0 b0 bd 8c 7a 0e be ba c9 04 3e 81 97 07 3f
       -0.086366415 -0.13913935 0.12967578 0.5296555
000310 44 54 0f 3f 18 63 a1 3c 1f 8b 84 3d d0 34 b4 bd
       0.55987954 0.019700572 0.06471848 -0.08799136
000320 40 d5 45 be 05 2c 5e bd 8f 75 c6 be ac 57 96 bc
       -0.1931963 -0.0542412 -0.38761565 -0.018352352
000330 68 a6 2a 3d cf 48 4d be a1 4a c1 3d 0b 3e 20 3d
       0.041662604 -0.20047306 0.094380625 0.03912167
000340 41 1a 3b be 0c a3 13 be c3 82 1e 3e 14 6f e4 3d
       -0.18271734 -0.14417666 0.15479569 0.11153999
000350 fb 5e 4e 3e a9 c9 b2 3d ae 24 19 3d d8 d2 94 3e
       0.2015342 0.0872987 0.037388496 0.2906711
000360 69 69 c5 bd 6d 58 c9 3d f3 20 95 3e cc ec a9 3e
       -0.09639246 0.09831319 0.291267 0.33188474
000370 1f 28 51 3d d2 05 8c bd 76 23 02 3e a8 19 2b 3e
       0.051063653 -0.06837048 0.1270884 0.16709006
000380 3f c0 42 3e 1d 02 ce 3c 4d ee 13 be b7 0b b8 bd
       0.19018649 0.025147492 -0.14446373 -0.089866094
000390 40 06 17 be 04 18 18 3e 11 34 18 3e 78 7f 0a be
       -0.14748478 0.14852911 0.14863612 -0.13525188
0003a0 9c 6c 56 3d 48 1a 6e 3e 50 c3 d2 3d 52 d5 8f 3e
       0.05234967 0.23252213 0.10291159 0.28092438
0003b0 6b 27 60 3d da 7a ca bd 60 c1 b8 be 29 c5 f3 3d
       0.054725092 -0.09886713 -0.36085033 0.1190284
0003c0 9d 1c 96 3e d4 af b6 bc bb 40 91 be e1 cd 95 3d
       0.29318705 -0.022300638 -0.28369698 0.07314659
0003d0 f8 d8 7a be f8 53 92 3e 97 84 2a 3e e0 57 8d be
       -0.2449683 0.28579688 0.16652142 -0.27606106
0003e0 04 89 10 3d 44 70 84 3e 81 c6 a8 3e 63 82 99 be
       0.03528692 0.25866902 0.32963946 -0.2998229
0003f0 01 42 03 be ff d7 f7 bb 22 ce 9b bd 86 73 26 3f
       -0.12818147 -0.0075635905 -0.07607676 0.65020025

net.0.bias f4 [128]
000000 21 03 a8 3f 6a 14 2c bf a3 10 57 3e e4 ab 18 c0
       1.3125955 -0.6721865 0.2100244 -2.3854914
000010 0c 17 e7 3e d9 35 b9 3f e1 69 f0 bf 59 43 cf bf
       0.4513477 1.4469558 -1.8782312 -1.6192428
000020 0f fb 9a 3f f9 33 76 c0 89 ee f4 bd 63 fb 18 c0
       1.2107867 -3.8469222 -0.119595595 -2.3903434
000030 41 10 10 3e 4d 60 8c 3e 32 2b 27 3e 46 70 4f c0
       0.140687 0.27417222 0.16325071 -3.2412276
000040 77 48 ce 3e 04 ec 50 bc 3f 22 8f c0 16 c8 89 40
       0.4028966 -0.012751583 -4.4729304 4.3056746
000050 14 92 54 bf b4 fc b2 be ee db 31 c0 f9 b0 24 3f
       -0.830354 -0.34958422 -2.7790484 0.6433254
000060 c7 4e 8b bf 2c 4b 5f 3f 4f 4c 0c 3f f9 c4 dc bf
       -1.0883416 0.8722408 0.5480394 -1.7247611
000070 fe 26 cc 3f 96 3d 84 40 45 7b 96 c0 a2 03 b0 3e
       1.59494 4.132518 -4.7025476 0.34377772
000080 ad 27 97 bf 1d 55 6a be e3 bb e2 3f ab 00 65 c0
       -1.1808983 -0.2288403 1.7713588 -3.5781658
000090 6d a2 af be a6 9a b1 3f a5 e9 6d 3e 36 8d ae c0
       -0.3430361 1.387532 0.2323366 -5.4547377
0000a0 dd 61 43 c0 30 5c ca bf 45 d6 38 be 29 6e b7 c0
       -3.052848 -1.5809383 -0.18050487 -5.7321973
0000b0 c0 c9 39 c0 d6 0e 8a be 99 f9 20 c0 61 da 34 c0
       -2.9029388 -0.26964444 -2.5152342 -2.8258288
0000c0 f7 80 c4 be 87 43 91 c0 59 3f be bf 37 77 96 be
       -0.38379642 -4.539493 -1.4863082 -0.2938783
0000d0 ca ae 3d c0 4d bc 31 bf 69 72 cd 3e b8 44 26 3e
       -2.9637933 -0.6942795 0.4012635 0.16237152
0000e0 23 e7 b9 3e 13 b3 47 bf bf 7e 5b 3f 68 ff 00 40
       0.36309156 -0.7800762 0.85740274 2.0155888
0000f0 e8 43 93 bf 3e f1 34 c0 66 46 3d 3e 48 19 03 3f
       -1.1505098 -2.8272243 0.18483886 0.5121045
000100 53 df 97 c0 ee c0 54 c0 59 28 ae 3f b3 4b 1f c0
       -4.7460113 -3.3242755 1.3606063 -2.4889953
000110 a6 a2 45 be 9e 4a 07 40 13 e5 b7 c0 f3 12 d2 bd
       -0.19300327 2.1139293 -5.746713 -0.102575205
000120 96 95 c1 3f 45 83 dc bf 35 8c 0b c0 bd 41 98 bf
       1.5123775 -1.722756 -2.1804326 -1.1895062
000130 6c 4d 3d bf 1f 40 34 40 ed ce 88 c0 d9 3a f1 3e
       -0.7394626 2.8164136 -4.2752595 0.4711521
000140 ac a5 8a 3f 96 f3 24 be 62 e7 03 3f 08 96 46 40
       1.0831809 -0.16108546 0.5152494 3.1029072
000150 c2 fe fd 3f 13 f6 12 40 a3 91 4f c0 4e f4 d8 3e
       1.9843371 2.2962692 -3.243264 0.4237389
000160 05 c7 98 c0 e3 16 fd 3e 63 e7 90 3e 36 fe 92 3f
       -4.7742944 0.49431524 0.28301534 1.1483829
000170 18 94 8d 3e 4c 3b 84 3f 1d 54 cd 3f 3d 94 94 c0
       0.2765205 1.0330596 1.6041294 -4.6430955
000180 26 60 c4 c0 48 7a 51 bf 70 d6 47 bc 2e 0d 06 c0
       -6.136737 -0.8182721 -0.012197122 -2.0945544
000190 58 de c0 bc e4 66 88 c0 c1 18 ed bf 21 7f 8b c0
       -0.023543522 -4.26256 -1.8523179 -4.3592687
0001a0 ef a9 ee 3f ea 57 cf 3f 68 c7 02 bf eb 37 aa c0
       1.864561 1.6198704 -0.5108552 -5.319326
0001b0 53 9b ad c0 87 25 2a c0 00 19 d1 bf 7d a5 5c bd
       -5.4252105 -2.6585405 -1.6335754 -0.05386876
0001c0 6a f7 00 c1 30 ad 26 c0 44 b8 82 3e e0 22 0c bf
       -8.060404 -2.6043205 0.2553121 -0.54740715
0001d0 7b c5 c8 3f 9f 7e 96 bf 13 74 a2 3f 8f 54 0d c0
       1.5685266 -1.1757392 1.2691673 -2.208286
0001e0 48 99 91 c0 99 9c 1f c0 d1 04 c3 bf 84 73 60 3e
       -4.549961 -2.493933 -1.5235845 0.21919066
0001f0 1c 52 b2 bf 5f cc 24 3f b8 bf 43 c0 46 c6 f6 3e
       -1.3931308 0.64374346 -3.0585766 0.48198146

net.2.weight f4 [128, 128]
000000 63 90 68 be 16 b9 d0 bd a3 d1 95 bd 73 be d1 3e
       -0.22711329 -0.10191552 -0.07315376 0.40965614
000010 51 c2 20 bd fd 14 46 3e ae 9a 94 be d5 9f d4 bc
       -0.039247815 0.19343944 -0.2902426 -0.02595512
000020 96 99 0c be 7f af fb bd 05 01 f9 bc d2 fb 98 bd
       -0.13730463 -0.122893326 -0.030395994 -0.07469906
000030 08 5a 40 be 0a 11 90 bd 4d fb 85 bc ba 21 46 be
       -0.18784344 -0.070345 -0.016355181 -0.19348803
000040 dd 8d 23 be 66 1a 46 bd 6b aa 6a be 8b da 0a 40
       -0.15972085 -0.04836502 -0.22916572 2.1695888
000050 3a e5 8c bd f6 ca 6a 3e 36 82 2c be 3e 79 e5 bd
       -0.06879659 0.22928986 -0.16846547 -0.11204766
000060 1f 08 7c bd 58 39 f5 bd 90 5f b3 bd 92 12 14 bd
       -0.061531182 -0.11973828 -0.087584615 -0.036150523
000070 a0 5f 92 bd ac e2 b6 3f 8c dc e6 be 1e 02 fd bd
       -0.07147145 1.4287925 -0.4509014 -0.123539194
000080 55 c8 db bd 75 1d 0a be ea 29 e0 be 58 8c 19 bf
       -0.1073157 -0.134878 -0.43781978 -0.5997977
000090 c8 f8 39 bd 23 3d 20 bd 3f 15 2a be eb b8 6c bf
       -0.045403272 -0.039120805 -0.16609667 -0.9246966
0000a0 e6 b0 aa be b2 67 95 3f 13 c4 5f 3e 5e da 91 bf
       -0.33338088 1.167227 0.2185214 -1.1394765
0000b0 4f ca d2 bf 92 8b 93 3c 50 7b 0a bf c7 25 3e be
       -1.646799 0.018010888 -0.5409441 -0.18569098
0000c0 6d d5 a2 be 57 4d 60 bd de 0b 4d be 76 70 e2 bd
       -0.31803456 -0.054761257 -0.20024058 -0.110566065
0000d0 94 df ae 3f 3e 72 4b be 90 42 a4 bc bc 68 f5 bd
       1.3661981 -0.19867799 -0.02005127 -0.11982867
0000e0 79 69 10 be 42 78 1b bc be 41 10 bd cc 23 15 bd
       -0.14102735 -0.009489121 -0.035218947 -0.03641109
0000f0 33 34 09 bf 38 75 61 bd da 2e ae bd 90 20 c1 be
       -0.53595275 -0.05504343 -0.0850503 -0.37720156
000100 3f e1 5d be d9 be d9 be b9 1a 33 be 36 13 ef be
       -0.21667956 -0.42528418 -0.17490663 -0.46694344
000110 b9 c9 fc bd be 36 e8 3d ec 1c bb 3c ed 5c 90 bd
       -0.12343163 0.11338566 0.02284094 -0.07048974
000120 5c 7a 48 3f 92 75 4c be ee 21 68 bf 87 1c b7 bd
       0.78311706 -0.19966725 -0.9067677 -0.08940988
000130 af 15 78 be 98 29 6e bd 26 ee cf bd f5 c8 32 be
       -0.24227022 -0.058145136 -0.10152845 -0.17459472
000140 99 f2 bf bd a7 b8 01 bd 15 d7 0e be 51 53 b5 40
       -0.09372444 -0.03167024 -0.13949235 5.6664205
000150 12 4e 31 bf 95 13 cd 3e 4b b5 d6 be 2c b8 1a bd
       -0.6925975 0.40054002 -0.4193519 -0.037773296
000160 36 ea d3 be a6 99 9c bd 40 b0 5d bd d9 a8 1f bd
       -0.41389626 -0.076464936 -0.054123163 -0.038979385
000170 1a 58 09 be 65 b4 16 3e 19 7d 7b 40 98 e2 df bc
       -0.13412514 0.14717253 3.9295104 -0.027329728
000180 ba 78 e9 be 22 c3 04 be 73 2a 61 bd 57 54 cb be
       -0.4559992 -0.12965062 -0.054972123 -0.39712784
000190 b2 50 35 be 98 3b 9e be a3 a2 01 bc b6 6b ae be
       -0.17706564 -0.3090484 -0.007912311 -0.34066552
0001a0 65 0f 58 3e 67 91 73 bd 7f 66 47 bd 40 ac 25 bf
       0.21099623 -0.05946484 -0.048681732 -0.6471596
0001b0 b0 c6 b6 3d c9 a0 d6 bf fe 17 98 bd f6 64 99 bd
       0.089246154 -1.6767818 -0.07426451 -0.0748996
0001c0 99 1a 5f be 39 b4 74 be 55 6c 39 be 0e 3d 74 bd
       -0.2178749 -0.23896874 -0.18107732 -0.05962854
0001d0 07 59 3f bd e7 77 33 be c9 ce 37 be c2 91 0f be
       -0.046715762 -0.17526208 -0.17949976 -0.14020446
0001e0 00 30 ca be 7b fa 9e bd 87 3a 23 3b d9 ab bb bd
       -0.39489746 -0.07762619 0.0024906711 -0.09163637
0001f0 3b d3 c2 bd 1e 7e b2 3c 7a 14 60 3f 06 df 02 bd
       -0.09512945 0.021788653 0.87531245 -0.031950973
000200 e7 71 4a be 7e 1e 88 be cf 69 e0 bd 3c a2 d7 bd
       -0.19770013 -0.26585764 -0.109576814 -0.105289906
000210 35 13 fe bd c0 9c 0a be 12 4e 77 be a0 61 1d bd
       -0.12406007 -0.13536358 -0.24150875 -0.03842318
000220 e8 2a 32 be 51 13 c7 bc bb 16 15 be 69 85 5d be
       -0.1739918 -0.024301203 -0.14559452 -0.21632923
000230 d1 75 1b be 60 48 51 be 7a 39 2f bd e9 a1 ff 3d
       -0.15181662 -0.20437765 -0.042779423 0.12482054
000240 ef 9e d7 bd 5c 7f 80 bd 12 24 b1 bc 21 74 58 be
       -0.10528361 -0.06274292 -0.021623645 -0.2113805
000250 1c f3 3c be d1 2e 2b be 1d dc 44 be fb fb 0c be
       -0.18452114 -0.16717078 -0.19224592 -0.13767998
000260 69 fe a0 be 20 1c 3d be a3 07 14 be 95 29 5a 3c
       -0.314441 -0.1846776 -0.14456038 0.013315578
000270 e9 e7 6e be 76 53 25 be 1c 55 3e be f4 d4 0e bd
       -0.23330654 -0.16145119 -0.18587154 -0.034871057
000280 2b b2 ce bd 53 6c 30 bd d3 f5 86 bd 58 bf 0c bd
       -0.100925766 -0.043072056 -0.06589856 -0.034362167
000290 de 36 8a bd 8e e7 f4 bd 37 76 4c be 58 f6 2c 3e
       -0.06748746 -0.11958228 -0.1996697 0.16890848
0002a0 83 fe 52 be a5 26 94 be 28 82 91 be f0 2f 22 3d
       -0.20604901 -0.28935733 -0.28419614 0.039596498
0002b0 17 74 17 bc 76 b2 3c bd a4 02 81 bd 89 06 15 3c
       -0.009243987 -0.04606863 -0.06299332 0.009095796
0002c0 f1 ef 87 bb 94 94 7f 3d 02 55 6d bd c5 07 ae bd
       -0.0041484763 0.062397555 -0.057942398 -0.08497576
0002d0 4a 65 1c bf 1e 41 d5 bd db 95 8c bd eb 98 a0 bd
       -0.61092055 -0.10412811 -0.0686452 -0.07841667
0002e0 a4 62 f0 bd 39 8f cd 3c 41 cc 58 be c0 90 3d be
       -0.11737564 0.025092708 -0.21171667 -0.18512249
0002f0 4b 46 d1 bd ad 8e 85 3b 47 ae 9f bd 19 84 0a be
       -0.102184854 0.004075846 -0.07796913 -0.13526954
000300 7a 6f 59 3e 18 51 bc bc 6c 8b 44 be 58 79 5b 3c
       0.21233931 -0.022987887 -0.1919381 0.01339563
000310 84 30 e4 bd 79 6c 38 3d 43 67 c6 ba c5 eb c2 bd
       -0.11142066 0.045025323 -0.0015136976 -0.09517626
000320 e1 03 e0 3c 19 7b ec be cc 7c d5 bd 44 dd 5d 3d
       0.0273456 -0.46187666 -0.10424194 0.054166093
000330 c6 a6 07 be a8 ac 81 be 5e 1e 5a bd d2 63 c5 bd
       -0.13247213 -0.2532704 -0.053251617 -0.0963818
000340 b9 ac 37 be 58 cb c2 bd 89 48 17 be fb 11 d7 be
       -0.17936982 -0.09511441 -0.14773764 -0.42005906
000350 85 06 dc be 9d 73 15 3d 66 59 c8 be 49 bd bb 3c
       -0.42973724 0.03648721 -0.39130706 0.022917407
000360 47 87 20 3d 70 38 0f be 61 8b 73 bd 99 90 38 bd
       0.03919151 -0.13986373 -0.059459094 -0.045059774
000370 78 6c f3 bd 78 63 69 be 40 e0 6c be d7 79 65 3d
       -0.11885923 -0.2279185 -0.2313242 0.0560244
000380 8c 3a 95 bc c6 f7 8a bd 48 40 c5 bd 0d 40 4b 3c
       -0.018216394 -0.0678554 -0.09631401 0.012405408
000390 21 80 30 be 1e 99 db 3c 38 6f d6 bd fb 41 ac bd
       -0.17236377 0.02680641 -0.10470432 -0.08411022
0003a0 8d 9b 43 be 86 b3 0a be 15 94 ec bd 8d 44 27 3d
       -0.19102307 -0.13545045 -0.11551682 0.04083686
0003b0 97 0e e6 3d 93 4f 5c 3c 5e 94 1e be cc 7f 7f bd
       0.112332515 0.013446706 -0.15486285 -0.062377736
0003c0 0d 9f 03 3e a9 41 9d be 3b d8 9a be f5 65 bb bd
       0.12853642 -0.30714157 -0.30243096 -0.09150306
0003d0 30 76 b4 bd b5 ef a1 3d 8d e0 f8 bb 5c 91 be bd
       -0.08811605 0.079070486 -0.007595128 -0.09305069
0003e0 36 3d f2 bd 44 8c 50 be 66 3a 0f be 4c 2a 2a bd
       -0.11828081 -0.20366007 -0.13987121 -0.041544244
0003f0 78 a8 78 bd d0 2c a6 3d dd ae 53 be 3a e7 0b be
       -0.06070754 0.08114016 -0.20672174 -0.13662425

net.2.bias f4 [128]
000000 83 a5 0c 3f 55 da 1a bf 7f 79 58 be 1b e4 92 be
       0.5494005 -0.604894 -0.21140097 -0.28689656
000010 17 8b 67 3e 7e 68 5e 3e 8a 68 0a c0 60 c3 f5 3e
       0.22611652 0.21719548 -2.1626306 0.48000622
000020 5e f6 60 bd 11 ce fc 3f 6e d2 8c 3e 62 aa 91 3e
       -0.054922454 1.9750386 0.27504295 0.28450304
000030 a1 45 c7 bd e5 ec 44 3f 51 29 0e bf 0a 93 b4 3e
       -0.097300775 0.7692397 -0.55531794 0.35268432
000040 f1 52 b6 3e 2e 00 90 3e 7b c0 75 bf 50 c1 94 3e
       0.35610154 0.28125137 -0.95996827 0.29053736
000050 16 fe 8f 3e 87 36 c5 3e 92 f9 07 3f 69 c5 2a 3e
       0.2812354 0.38518164 0.5311519 0.16676868
000060 4b 7c 06 3f 89 81 2d 3f 54 8b f6 3e 1d 42 02 3f
       0.52533406 0.6777578 0.48153174 0.5088213
000070 18 51 ae 3e c1 7d f9 3f af 29 e9 3e b4 93 d0 3e
       0.34046245 1.9491502 0.45539615 0.4073769
000080 d2 e4 5f 3e f6 76 2c 3e db bd 17 3f 6e 30 90 be
       0.21864632 0.16842255 0.5927407 -0.2816195
000090 2c c0 28 3f dc 3d ba 3e ce 8c 33 c1 b5 df a2 bd
       0.6591823 0.3637532 -11.221876 -0.07952825
0000a0 02 d0 55 be 2e 8f 72 3e f1 5d 0e 3d 18 fe a2 3f
       -0.2088013 0.23687431 0.03475756 1.2733793
0000b0 86 50 16 40 cf ac e3 3e 30 86 b8 3e 78 bf ac 3e
       2.3486648 0.4446778 0.36039877 0.3373983
0000c0 b0 72 4b 3e ff f9 b1 bd 30 61 1d 40 12 79 7c 3e
       0.19867969 -0.08690261 2.4590569 0.2465556
0000d0 ac 6e e4 3e a1 5e cd be 49 54 7e 3e 4e 8c 7d 3e
       0.44615686 -0.4011126 0.2483684 0.24760553
0000e0 78 e1 91 bd 2b ab 0e 3f 4a ec 29 3e b5 88 c8 3e
       -0.07123083 0.5572993 0.16594043 0.391668
0000f0 98 24 c7 3f 8e da 0c 3e 7b 61 24 be bd eb 18 40
       1.5558043 0.13755247 -0.16052811 2.3893883
000100 7f 26 28 be 8b 59 b2 bf e9 e0 0d bf 4c 2b 90 bf
       -0.16420935 -1.3933576 -0.5542131 -1.1263213
000110 cf 05 53 40 dd 1d f0 3e 35 db 2a bd 17 dc f1 bd
       3.2972295 0.46897784 -0.04171296 -0.11809557
000120 85 e2 01 c0 72 89 d2 bf 47 ec 2d 3f b1 22 4d be
       -2.0294507 -1.6448195 0.67938656 -0.20032765
000130 bf 33 27 be 86 05 52 3f 9c 67 a5 3e 34 28 8b be
       -0.16328333 0.8203968 0.3230561 -0.2717911
000140 34 45 ef be d7 8b 82 bd d3 38 99 3e 74 a4 90 3f
       -0.46732485 -0.063743286 0.29926166 1.1300187
000150 a3 50 b9 bd 60 f1 03 40 e7 4e 62 c0 ed 14 96 40
       -0.09048583 2.0616074 -3.5360658 4.6900544
000160 24 ca e1 3e 71 d3 c2 bd 52 0b 2c 3f 13 81 66 3e
       0.44099534 -0.095129855 0.67204773 0.22510175
000170 fd a8 e0 bf b5 8f 4d be 9a de c7 3e 96 0a a7 3e
       -1.7551571 -0.20074351 0.3903702 0.32625264
000180 13 fb 5a 3f a1 17 b2 be 15 16 c6 be dc 6d d9 bf
       0.8553936 -0.34783652 -0.38688722 -1.6986651
000190 56 c8 17 40 0d 24 84 3e 0a 21 40 be 2f 7f 3d bf
       2.3716025 0.25808755 -0.18762603 -0.7402219
0001a0 f2 4d bc 3e d0 0c 05 40 65 c5 ed bf 2e e7 f8 3f
       0.36778218 2.078907 -1.8575865 1.944555
0001b0 b0 d9 d8 3e c1 c5 96 3e 5e 97 66 be 36 e5 d4 3e
       0.42353582 0.2944775 -0.2251868 0.41581124
0001c0 1d 93 f0 bf c4 d1 b1 3e d1 5e 21 be ae 14 a3 3e
       -1.8794895 0.3473035 -0.15758826 0.31851715
0001d0 b6 d5 92 3e a3 6f 9d 3e 11 ff 01 3f dc bb 10 be
       0.28678674 0.30749235 0.50779825 -0.14134163
0001e0 ca 43 6f 3f 74 11 8c 3e 26 27 70 3d e3 9c 0f 3f
       0.9346281 0.27357066 0.058631085 0.56098765
0001f0 fb c8 ab c0 cc be a5 3f 9f 27 73 3e 7a e0 aa bf
       -5.3682837 1.2948852 0.23745583 -1.3349755

net.4.weight f4 [38, 128]
000000 d5 a8 70 bd ac ab 7f 3d 39 fa 9b bd d3 f4 d3 3d
       -0.05875476 0.06241958 -0.076160856 0.10349431
000010 7a ca d2 bd 29 d2 f9 bd 17 eb 8c bc 4b 3e 8a be
       -0.102925256 -0.12198288 -0.017201943 -0.2700065
000020 59 bd 35 3e 55 4b 55 bd 26 d0 21 bc 5d 6f fd 3e
       0.17748012 -0.052073795 -0.009876287 0.49499026
000030 b3 d2 33 3d d6 24 6b bd 6b 75 11 3e ae 7b e3 3d
       0.04390211 -0.057408176 0.14204948 0.111075744
000040 fc 88 0d bd b3 dd c2 3c 07 3f 61 be f4 0a 08 bd
       -0.034554467 0.023787355 -0.219967 -0.03321357
000050 bc 55 f0 ba 88 67 8d 3c 95 68 ef ba aa 16 0e 3e
       -0.0018336098 0.017261282 -0.0018265421 0.13875833
000060 d3 ea 0f 3c 15 33 c4 3e 40 3e 2e bd d5 42 0e 3d
       0.008784014 0.38320222 -0.042539835 0.034731705
000070 c1 9f 13 3e 89 60 d9 bd 3d 8a 20 3c c5 76 81 3b
       0.1441641 -0.10614116 0.009798584 0.003950926
000080 46 0f 60 3c ea 47 ea 3d a5 83 74 3d 52 a7 4b 3e
       0.0136755165 0.11439498 0.05969586 0.19888046
000090 08 d8 59 bd 51 5b 4b 3d a7 f6 ba be f2 14 07 bf
       -0.05318454 0.049647633 -0.36516306 -0.52766335
0000a0 68 4e 60 3e ab b3 6d 3d 49 e3 d5 bd 8c 60 9c be
       0.2190491 0.058032673 -0.10443742 -0.3054241
0000b0 bc b6 a7 3d 74 8d 3e 3d 9b 11 07 3e b4 ed f1 bc
       0.08189151 0.04652162 0.1319031 -0.029532291
0000c0 b2 5e 62 3b e1 74 01 3d 7a ee e4 3e 97 6c 86 bd
       0.0034541306 0.031605605 0.44713193 -0.065636806
0000d0 46 a5 a7 3c 04 01 21 3e 0d 11 ed 3d 33 98 44 3d
       0.02046455 0.15723044 0.11575518 0.04799671
0000e0 c9 5b 17 3e 95 fa 82 bc 16 39 92 3b 66 12 a4 3d
       0.14781107 -0.015988627 0.0044623716 0.08011322
0000f0 e6 f6 bb 3d 4d cb a0 3d 43 e7 8b 3d 3a 3e 8e be
       0.091779515 0.078512765 0.06831219 -0.2778185
000100 f4 f2 64 3c 25 94 d7 3e 11 44 12 3e 56 cc 45 3d
       0.01397394 0.42105213 0.14283778 0.048290573
000110 d1 14 34 be 0c 55 f9 3d 02 6d 88 bd c4 c5 1f 3e
       -0.17586066 0.121744245 -0.066614166 0.15602785
000120 e3 56 40 3f 52 0f f9 bd 69 49 20 bc 44 f6 08 be
       0.7513258 -0.12161125 -0.009783127 -0.13375193
000130 07 0d ca 3d 48 ab 17 3f 2d 71 0a 3e 9c b7 29 3d
       0.09865766 0.5924573 0.13519736 0.04143487
000140 d8 46 f8 3d e7 f4 2d 3e ae ec 7e 3d 8d 3f 6a bc
       0.121228874 0.16987954 0.062237434 -0.014297378
000150 85 33 ee 3d 91 16 08 3e 19 39 0d be 4a 4a f3 3d
       0.1163092 0.13289858 -0.13791312 0.11879404
000160 f8 91 45 bb ca 47 0a 3d b4 7c c0 bd 0a aa 1b 3e
       -0.0030146819 0.03375987 -0.09398785 0.15201584
000170 66 d8 ab 3c b9 83 65 3e 02 78 34 3d 60 47 9c 3d
       0.02097721 0.2241353 0.04405976 0.07630801
000180 2b 6a de bd 26 49 f8 3d 83 96 1a 3e 62 d2 87 3e
       -0.10860094 0.12123327 0.15096478 0.26527697
000190 8c 3d ab be 20 3a 5c 3d b0 b0 3f 3e 7b 71 cf 3d
       -0.33445394 0.05376637 0.18719745 0.101290666
0001a0 b0 01 c0 3d 93 6d bb bd a9 42 fa be ba 20 77 3e
       0.09375322 -0.09151759 -0.48878983 0.24133578
0001b0 c5 9c c5 3d ff fa 92 3d bd 05 65 3e 81 dd e6 3d
       0.09649042 0.0717678 0.2236547 0.11272717
0001c0 f3 1d 8b bf bd 7d 51 3d 32 81 fb 3d ed 5b 8e 3c
       -1.0868515 0.051145304 0.122805014 0.017377818
0001d0 7b 3c c0 3d 8d d0 0e 3f 09 b7 b1 bb 03 12 1e 3e
       0.09386536 0.55786973 -0.005423431 0.15436558
0001e0 97 71 80 3d 4f 77 88 bd c3 ff 24 bd 03 a7 ef 3d
       0.062716655 -0.06663381 -0.040282976 0.11701777
0001f0 5c d9 a3 bf 3a cf 29 3d 1c e5 ee bc e3 ff 02 3e
       -1.2800708 0.041457392 -0.029161982 0.12792926
000200 70 c0 72 3c ed b9 24 3e c5 62 c2 bd 05 c0 23 3e
       0.0148163885 0.1608655 -0.09491495 0.15991218
000210 ee 9b 0e be 6d 04 04 be ab 01 b5 3e 37 50 a1 be
       -0.1392667 -0.12892313 0.35352835 -0.31506512
000220 fa 06 45 3e 66 03 b6 bd f4 4c 35 3e 99 6a 25 3f
       0.19240943 -0.08887367 0.17705137 0.6461578
000230 be fc af 3c 8b 58 a6 3d e9 d6 c2 3d e3 b3 a5 3d
       0.021482822 0.08122357 0.09513647 0.08090951
000240 4f 75 bd bd ff cd d2 3c 35 79 72 be fa 3a 8a bd
       -0.092508905 0.025732992 -0.2367905 -0.0674953
000250 9e b8 e4 3d c1 d3 32 3e be d1 db 3d 7b 4c 21 3e
       0.111680254 0.1746359 0.107333645 0.15751831
000260 77 12 06 be 66 22 c8 3d 46 ca 82 bb c3 1c 48 3d
       -0.13092981 0.09772186 -0.003991398 0.048855554
000270 b8 ce e3 3d 0e 68 d6 bb f2 88 ed 3c b7 a7 0a 3d
       0.11123413 -0.006543166 0.028995965 0.03385135
000280 37 3f c0 3d e7 fa 19 3e 3e 2b cd 3d a2 ec 19 3d
       0.09387057 0.15037118 0.100180134 0.037579186
000290 64 61 08 3d b9 db 95 3b b5 b9 09 bf 1b ae 28 bf
       0.033296004 0.004573312 -0.5379899 -0.65890664
0002a0 9f df 47 3e 4c 84 d6 3d b4 76 12 bc d1 2f c2 be
       0.19518898 0.104744524 -0.008939434 -0.37927106
0002b0 74 47 da 3e a9 bc a3 3d 02 db ee 3d 26 5a c3 bd
       0.4263264 0.079949684 0.11662866 -0.09538679
0002c0 cd 4d cc bd 33 e5 5f 3d 43 f2 fb 3e ea 45 60 bd
       -0.09975777 0.05466194 0.4920827 -0.054754175
0002d0 ab f5 e1 3c 47 cf 34 3e fa 8f bd 3b 80 cb 8d bd
       0.027582964 0.17657195 0.0057849856 -0.0692358
0002e0 41 67 7b 3e ca 8d 3a 3e fc ea 94 3d 9d 25 0e 3c
       0.24551107 0.1821815 0.07271382 0.00867596
0002f0 1c 11 2c 3d 32 43 08 3e 7a 9e 89 bc f7 53 b2 be
       0.042008504 0.13306883 -0.0167992 -0.34829685
000300 9b 33 98 3d fc 69 0b 3f 79 fc d2 3c f8 e2 8e 3d
       0.07431718 0.54458594 0.025755154 0.069768846
000310 9b 6a 6a be 0f 88 e2 3d 45 5c 8c bd d1 90 a7 3d
       -0.2289223 0.11061107 -0.068535365 0.081819184
000320 e0 63 6c 3f 51 6d 15 be a8 48 84 3c 42 a9 0a bd
       0.923399 -0.14592482 0.016147926 -0.033852823
000330 3a af cd 3d f6 65 58 3f 86 90 bf 3d 0e 6f 2b 3d
       0.100431874 0.8453058 0.093537375 0.041853957
000340 b4 f8 16 bd 6d a2 2e 3e 9b 39 6b 3d 53 67 1f bd
       -0.036858276 0.17054148 0.057427984 -0.038916897
000350 48 fc 8f 3d 79 23 fe 3d 44 c6 1b be 5b db e6 3d
       0.07030541 0.124091096 -0.15212351 0.112723075
000360 bd de 0e bd 42 c2 e9 3d b7 04 0b be 8e d5 8b 3e
       -0.03488039 0.11414005 -0.13576017 0.27311367
000370 b9 8b 30 3d 83 fd af 3d a9 8a 84 3d 43 27 c8 3d
       0.043102 0.085932754 0.0647176 0.097731136
000380 f0 ff e4 3c 03 04 03 3d 6d 7c ce 3c 4f ca be 3e
       0.027954072 0.031986248 0.025205815 0.37263724
000390 88 85 b2 be 0b 35 93 3d 7d 0c 13 3e a8 4b eb 3d
       -0.348675 0.071878515 0.14360233 0.1148904
0003a0 7b 50 ae bc 79 a7 ab bd ea ae 08 bf 98 10 8f 3e
       -0.02127861 -0.08381552 -0.533919 0.27942348
0003b0 61 e3 59 3d c6 33 d2 3c cd 08 ca 3d 66 9f d2 3d
       0.05319536 0.025659453 0.0986496 0.10284309
0003c0 69 57 bf bf b1 35 8d 3d 66 1b c3 3d b6 84 9a 3d
       -1.494855 0.068950064 0.0952671 0.07544844
0003d0 ae fd a8 3d 5c 39 44 3f 10 6c 59 bd 99 69 be 3d
       0.082515106 0.76650023 -0.053081572 0.09297485
0003e0 dd d7 81 3c a9 96 39 3c 77 2f 13 bd 3e e8 b6 3d
       0.015850002 0.011327424 -0.035933938 0.089310154
0003f0 ac 3f c9 bf 86 cf 49 3b cb df 35 3d 66 e5 24 3e
       -1.5722556 0.003079386 0.04440288 0.16103134

net.4.bias f4 [38]
000000 7f 05 fa bd 4d 8e 99 bd cf f7 e3 bd e7 b9 8d bd
       -0.122080795 -0.07497845 -0.1113125 -0.06920224
000010 90 85 81 bc 82 96 3e 3d d7 5f ed 3c f2 8a 72 3b
       -0.015810758 0.046530254 0.028976364 0.0037009087
000020 2c f2 ca bc bc c4 0f 3e e1 6d d7 3d 22 2d ff 3d
       -0.02477368 0.14039892 0.105190046 0.1245978
000030 30 fc c2 3d 8f d6 be 3d 49 4c f7 3d 09 ed 29 3e
       0.09520757 0.093182676 0.12075097 0.16594328
000040 1d 85 fc 3d 90 a3 4f 3e 91 9d bc 3d 1d 92 8d 3e
       0.12330077 0.20277238 0.09209741 0.27650538
000050 58 a1 21 3e 62 be aa 3e c2 cc 77 3e 13 ab 8c 3e
       0.15784204 0.33348376 0.24199203 0.2747427
000060 ae 8b bd 3e 8e 84 80 3e 88 b9 90 3e 4c 20 0b 3f
       0.3702063 0.2510113 0.2826655 0.54346156
000070 fa a2 de 3e e0 de 07 3f 4f 9f db 3e 21 9f 30 3f
       0.43483716 0.53074455 0.4289498 0.6899281
000080 a7 59 0f 3f 48 ab 40 3f bf ce 22 3f 9c 85 60 3f
       0.55996174 0.75261354 0.6359672 0.8770387
000090 ba 71 5c 3f 62 2e 9e 3f
       0.8611103 1.2357905
